result/C3NetV2/C3NetV2_setting1.pth (torch_old, 946877 bytes, 737 tensors)

encoder.level1.conv.weight f4 [20, 3, 3, 3]
-0.010126543 0.12759656 -0.14771914 0.017865367 0.18434253 -0.17829084 -0.035595983 0.10735763
-0.100140736 0.012122843 0.14614542 -0.18004484 0.06748274 0.2180541 -0.20104311 -0.01513678
0.11340696 -0.13246222 0.002084535 0.13140012 -0.16923597 0.054175694 0.20735961 -0.18943089
-0.025207873 0.09791046 -0.12808366 -0.041763257 0.15234907 -0.11376193 -0.023957608 0.20514278
-0.15772413 -0.03686018 0.047097627 -0.0013402576 0.018688092 0.20533182 -0.23300813 0.0032544713
0.23836175 -0.27760527 0.02735333 0.07973152 -0.09926404 -0.014412 0.17952402 -0.15036961
-0.010284989 0.21754837 -0.1988696 -0.03941687 0.038188357 -0.0028408524 0.080815434 0.18657699
0.07328581 0.14617877 0.26876512 0.16420369 0.05766167 0.15543261 0.058500897 0.07267713
0.09255907 0.058870412 0.08470276 0.08572168 0.063813895 0.07263628 0.062019758 0.015085734
-0.17436041 -0.21906283 -0.14582449 -0.20271954 -0.2550962 -0.18193199 -0.10723949 -0.14933115
-0.10013866 -0.08298982 -0.1354929 0.037818417 -0.23571809 -0.35641703 -0.08422285 -0.19228733
-0.25486222 -0.039942764 0.027719427 0.006343475 -0.015420231 0.054923292 -0.01998636 0.024914019
0.06700499 0.040874664 0.054761164 0.06839678 0.068647034 0.0179397 0.06647025 0.012122217
0.02391143 0.045545604 0.030157605 0.020930221 0.08055092 0.12255628 -0.024116386 0.12780842
0.14915442 0.052750032 -0.17551096 -0.2230261 -0.06277896 0.08879361 0.124435745 0.0369163
0.11078535 0.11449189 0.09476856 -0.25434124 -0.3350186 -0.074481614 0.07960316 0.1086196
-0.019370925 0.14476831 0.1489561 0.064174585 -0.18979578 -0.25139242 -0.03303537 -0.06529086
-0.1815885 -0.08727847 -0.10975827 -0.28176332 -0.16877846 -0.01260096 -0.11554096 -0.047602504
-0.03751203 -0.019533848 -0.03349817 -0.019643206 -0.037645172 -0.024257012 -0.00067068153 0.018171169
-0.004689359 0.06241953 0.18865767 0.09040259 0.14381967 0.24606164 0.16536488 0.025745172
0.10972541 0.02701449 -0.22918218 -0.222429 0.04992877 0.36467814 0.3197007 -0.0056545627
-0.14222033 -0.09941158 -0.03838347 -0.34582582 -0.35101858 -0.021748327 0.44274822 0.39892936
0.040623907 -0.08280604 -0.046776973 -0.030549055 -0.26949263 -0.27458254 0.041985597 0.40706304
0.3548079 -0.027718676 -0.14703688 -0.07992642 -0.0038876177 -0.010096647 -0.07836489 -0.042919826
-0.123490974 -0.26820734 -0.18676488 -0.029994225 -0.10307007 -0.0726787 0.14228985 0.18844815
0.11423839 0.1342559 0.12483321 0.080910385 0.13357645 0.17029725 0.11367891 -0.0026883085
-0.04178695 -0.0021386046 -0.06981113 -0.15703315 -0.08849919 -0.013869568 -0.046558086 0.00025960416
0.02755202 -0.12529062 0.11700072 0.044386372 -0.15794356 0.13015988 -0.004038906 -0.012689133
0.0027137804 0.057919852 -0.24593854 0.15922539 0.07408746 -0.26260203 0.2154402 0.048419762
-0.0755686 0.040294085 0.018712828 -0.17710803 0.12581564 0.0606948 -0.19183649 0.15615165
0.014251615 -0.021835608 -0.016003383 -0.15697025 0.058985513 0.10931416 -0.2323246 0.08465414
0.14215569 -0.10801102 0.06610487 0.04635617 -0.15752666 0.117818095 0.06762063 -0.26701087
00000000: cde9 25bc aca8 023e b043 17be 645a 923c
00000010: 4ac4 3c3e e091 36be 18cd 11bd 51de db3d
00000020: 9616 cdbd e49e 463c 25a7 153e ad5d 38be
00000030: 6434 8a3d 9349 5f3e 3fde 4dbe 4200 78bc
00000040: e941 e83d 2da4 07be b29c 083b c18d 063e
00000050: 324c 2dbe 55e7 5d3d 1456 543e 2cfa 41be
00000060: be80 cebc 4785 c83d 5d28 03be f30f 2bbd
00000070: 6501 1c3e 04fc e8bd bf42 c4bc f310 523e
00000080: 6f82 21be b3fa 16bd 71e9 403d 95ab afba
00000090: c517 993c 8142 523e af99 6ebe f848 553b
000000a0: 1a15 743e 4722 8ebe 1714 e03c 474a a33d
000000b0: f24a cbbd 4f20 6cbc 25d5 373e 7efa 19be
000000c0: 5f82 28bc 00c5 5e3e 79a4 4bbe 9573 21bd
000000d0: 656b 1c3d 982d 3abb 9082 a53d 0a0e 3f3e
000000e0: df16 963d e3af 153e 959b 893e 0325 283e
000000f0: a52e 6c3d ba29 1f3e a39e 6f3d bfd7 943d
00000100: 9c8f bd3d 1a22 713d a478 ad3d d98e af3d
00000110: dcb0 823d 54c2 943d 6e08 7e3d 282a 773c
00000120: 898b 32be 0252 60be 0453 15be b695 4fbe
00000130: f89b 82be 614c 3abe 61a0 dbbd 44ea 18be
00000140: 7f15 cdbd 91f6 a9bd a7be 0abe 7ce7 1a3d
00000150: 1560 71be 4b7c b6be 087d acbd f8e6 44be
00000160: 4d7d 82be 069b 23bd da13 e33c eddc cf3b
00000170: 23a5 7cbc 3ff7 603d 6fba a3bc 7c18 cc3c
00000180: ea39 893d 316c 273d 3e4d 603d 9c13 8c3d
00000190: d196 8c3d 47f6 923c 8e21 883d 439c 463c
000001a0: e7e1 c33c 078e 3a3d 150d f73c db75 ab3c
000001b0: e1f7 a43d c9fe fa3d ba8f c5bc 36e0 023e
000001c0: f0bb 183e 6b10 583d 25b9 33be f460 64be
000001d0: 4192 80bd 6dd9 b53d 2bd8 fe3d 8c35 173d
000001e0: 6ee3 e23d b97a ea3d 0516 c23d 0439 82be
000001f0: 8f87 abbe d189 98bd fb06 a33d f473 de3d
00000200: c6af 9ebc 253e 143e f387 183e f76d 833d
00000210: d359 42be 82b6 80be 1950 07bd 37b7 85bd
00000220: 56f2 39be 0ebf b2bd f2c8 e0bd 4843 90be
00000230: 43d4 2cbe 4274 4ebc bda0 ecbd d8fa 42bd
00000240: 37a6 19bd 7305 a0bc 6135 09bd caea a0bc
00000250: d331 1abd a4b6 c6bc add0 2fba b4db 943c
00000260: 32a9 99bb 9fab 7f3d 7a2f 413e fe24 b93d
00000270: 7745 133e 95f7 7b3e 6955 293e 8ae7 d23c
00000280: b7b7 e03d 7e4d dd3c bcae 6abe 6ec4 63be
00000290: 1c82 4c3d 18b7 ba3e cfaf a33e e949 b9bb
000002a0: 35a2 11be 4c98 cbbd fc37 1dbd 1510 b1be
000002b0: b5b8 b3be 8c29 b2bc e5af e23e 7840 cc3e
000002c0: 4165 263d 3796 a9bd 3699 3fbd 0342 fabc
000002d0: f0fa 89be 1596 8cbe 17f9 2b3d 916a d03e
000002e0: 62a9 b53e 4712 e3bc d690 16be 76b0 a3bd
000002f0: 67c7 7ebb 686c 25bc c57d a0bd b3cc 2fbd
00000300: d6e8 fcbd 7952 89be 4b3f 3fbe 73b6 f5bc
00000310: 6716 d3bd 92d8 94bd 6eb4 113e 8df8 403e
00000320: d1f5 e93d 617a 093e 8ea8 ff3d 58b4 a53d
00000330: 44c8 083e 6762 2e3e 7dd0 e83d 552e 30bb
00000340: cb28 2bbd d527 0cbb 23f9 8ebd 4ccd 20be
00000350: 103f b5bd 2f3d 63bc b1b3 3ebd 7b1b 8839
00000360: c6b4 e13c 2f4c 00be 139e ef3d 7cce 353d
00000370: f5bb 21be a248 053e cd58 84bb 15e6 4fbc
00000380: aed9 313b 5e3d 6d3d 50d7 7bbe fb0b 233e
00000390: 2bbb 973d c673 86be 5b9c 5c3e cd53 463d
000003a0: b6c3 9abd 690b 253d a54b 993c cf5b 35be
000003b0: d1d5 003e 1c9b 783d c970 44be 38e6 1f3e
000003c0: 9b7f 693c 97e0 b2bc 8719 83bc cfbc 20be
000003d0: cb9a 713d 1ae0 df3d 80e6 6dbe 265f ad3d
000003e0: 4391 113e e234 ddbd fd61 873d f8df 3d3d
000003f0: ab4e 21be 9d4a f13d af7c 8a3d a6b5 88be

encoder.level1.bn.weight f4 [20]
1.0490028 0.9766158 0.63828766 1.5698307 0.73017424 0.8792372 1.00564 0.8053153
0.67335105 1.3263698 1.1497562 1.3257704 0.10682305 0.8475072 1.3626053 0.6603186
1.234145 0.5587443 1.2514975 0.6070986
00000000: b945 863f 7e03 7a3f d266 233f 36f0 c83f
00000010: b3ec 3a3f b015 613f d0b8 803f 2529 4e3f
00000020: bc60 2c3f 7cc6 a93f 362b 933f d8b2 a93f
00000030: 0bc6 da3d 3bf6 583f da69 ae3f a40a 293f
00000040: 77f8 9d3f de09 0f3f 1231 a03f d06a 1b3f

encoder.level1.bn.bias f4 [20]
0.004606822 0.022609638 0.29004875 -0.01650984 0.46268982 0.026401332 0.052975304 0.014395324
0.20995368 0.0514871 0.011525047 0.025320372 0.009714307 0.047129463 -0.049979836 0.46838537
0.008759178 0.24159773 0.046342134 0.028819593
00000000: d3f4 963b d937 b93c 4581 943e a53f 87bc
00000010: aee5 ec3e 9b47 d83c a2fc 583d 5dda 6b3c
00000020: 19fe 563e 23e4 523d 8dd3 3c3c ab6c cf3c
00000030: c228 1f3c d30a 413d a8b7 4cbd 35d0 ef3e
00000040: a882 0f3c 6565 773e 40d1 3d3d 1117 ec3c

encoder.level1.bn.running_mean f4 [20]
-5.991452e-07 1.474145e-06 1.4936378e-06 -4.0326067e-05 -2.5175593e-06 1.3954315e-06 6.759097e-06 -1.1344286e-05
1.0843778e-06 -9.54751e-07 6.0610128e-06 -4.942233e-05 2.6411602e-05 -2.0642863e-06 -3.966853e-05 1.3160824e-05
-3.6032895e-06 -5.7405373e-07 -6.661053e-06 3.504525e-05
00000000: f2d4 20b5 3ddb c535 0179 c835 c923 29b8
00000010: 57f3 28b6 a94a bb35 33cc e236 5653 3eb7
00000020: f08a 9135 ff24 80b5 b45f cb36 d34a 4fb8
00000030: 7c8e dd37 2b88 0ab6 c261 26b8 4fcd 5c37
00000040: 0bd0 71b6 ac18 1ab5 0282 dfb6 8dfd 1238

encoder.level1.bn.running_var f4 [20]
7.333811e-07 5.0687066e-07 2.3039747e-06 1.0133666e-05 1.5120654e-06 1.1813751e-06 1.1471011e-06 7.2493145e-07
2.48808e-07 1.4179359e-06 1.6692771e-06 7.720263e-06 2.726841e-06 1.4728082e-06 8.258006e-06 7.41076e-07
2.8850038e-06 3.669542e-08 1.1788155e-06 4.2091046e-06
00000000: 91dd 4435 e30f 0835 fc9d 1a36 c403 2a37
00000010: 2cf2 ca35 bd8f 9e35 18f6 9935 e998 4235
00000020: e993 8534 e84f be35 ed0b e035 4786 0137
00000030: c6fe 3636 4ead c535 de8b 0a37 5bee 4635
00000040: fd9b 4136 0a9b 1d33 cb37 9e35 ef3b 8d36

encoder.level1.act.weight f4 [20]
-0.03660616 -0.5092668 0.011138003 0.03508781 0.021941917 -0.30897906 0.3658054 -0.3315985
0.054910414 -0.028825453 -0.9120738 0.3104819 8.756742e-07 0.25047204 -0.12498434 2.46355e-40
0.0060237786 -1.39323e-40 0.59352726 0.018388722
00000000: 57f0 15bd 4f5f 02bf 2c7c 363c 3cb8 0f3d
00000010: 89bf b33c 8132 9ebe d84a bb3e 47c7 a9be
00000020: bee9 603d 5b23 ecbc ab7d 69bf 7cf7 9e3e
00000030: df0f 6b35 df3d 803e caf7 ffbd bdae 0200
00000040: 1e63 c53b 6084 0180 67f1 173f f2a3 963c

encoder.b1.bn.weight f4 [23]
0.44983608 0.5591983 0.44476962 0.5033249 0.54459226 0.42969912 0.5044313 0.38205317
0.726588 0.37493908 0.34517837 0.6092413 0.12952851 0.48803464 0.60582674 -1.48972e-40
0.31444314 -2.20137e-40 0.6126937 0.27745232 2.7856e-41 0.3669775 1.2531582
00000000: ea50 e63e 9f27 0f3f d8b8 e33e e7d9 003f
00000010: 666a 0b3f 8601 dc3e 6922 013f 799c c33e
00000020: ac01 3a3f 04f8 bf3e 38bb b03e 3df7 1b3f
00000030: 1fa3 043e addf f93e 7617 1b3f 469f 0180
00000040: b1fe a03e a765 0280 7fd9 1c3f 3b0e 8e3e
00000050: a74d 0000 7ae4 bb3e 7d67 a03f

encoder.b1.bn.bias f4 [23]
-0.09666048 0.23548448 0.4166552 -0.35415184 0.11370349 0.12264811 0.016201688 0.13704269
0.21692786 0.2088036 0.16693065 -0.43554065 -0.81588566 0.01693304 -0.7060888 -1.40704e-40
-0.04178475 -1.64417e-40 -0.545075 -0.074150845 2.61227e-40 -0.15696448 -0.24937892
00000000: eef5 c5bd d822 713e d553 d53e 6453 b5be
00000010: 60dd e83d ef2e fb3d 67b9 843c eb54 0c3e
00000020: 5622 5e3e 9cd0 553e deef 2a3e 2fff debe
00000030: e2dd 50bf 29b7 8a3c 3cc2 34bf 3a88 0180
00000040: 7c26 2bbd 54ca 0180 098a 0bbf 66dc 97bd
00000050: 32d8 0200 4cbb 20be 305d 7fbe

encoder.b1.bn.running_mean f4 [23]
0.009483519 0.024662519 0.29049128 0.041321713 0.46286616 0.031865247 0.054089025 0.019235432
0.20998913 0.05518029 0.0256952 0.048264977 0.009713871 0.04870339 0.026600763 0.46891353
0.01954139 0.24120693 0.047920365 0.030388247 6.047256e-05 6.1681145e-05 7.067032e-05
00000000: c360 1b3c 0d09 ca3c 46bb 943e f540 293d
00000010: cbfc ec3e 2285 023d 748c 5d3d a093 9d3c
00000020: 6407 573e ba04 623d bd7e d23c 7fb1 453d
00000030: ee26 1f3c 357d 473d d8e9 d93c 6f15 f03e
00000040: 4415 a03c f3fe 763e 2548 443d c6f0 f83c
00000050: eba3 7d38 d05a 8138 d734 9438

encoder.b1.bn.running_var f4 [23]
0.0003729818 0.00027585402 0.0009368185 0.0027037377 0.0008042166 0.00036844402 0.0009276559 0.00014881835
0.00011234137 0.0014659312 0.0015360491 0.0044737956 3.0956264e-05 0.0007335935 0.0007455226 0.00032310095
0.002125014 1.1484941e-05 0.0015317356 0.001399772 1.7349737e-05 1.729077e-05 1.76764e-05
00000000: c58c c339 80a0 9039 d394 753a 3131 313b
00000010: 10d2 523a b82b c139 ef2d 733a 1f0c 1c39
00000020: d098 eb38 7d24 c03a 4155 c93a eb98 923b
00000030: 09d7 0138 a04e 403a 2d6f 433a e065 a939
00000040: d243 0b3b 72af 4037 85c4 c83a 8e78 b73a
00000050: 478a 9137 a50b 9137 c847 9437

encoder.b1.act.weight f4 [23]
-1.1629875 0.059574913 -0.6351938 0.2594782 -0.7013103 0.13114592 -1.1604326 0.062349122
-0.4463291 0.19849497 0.00777591 0.55236673 0.75325346 -1.1089906 0.2358636 1.76464e-40
-2.265044 -5.44815e-40 0.5807583 -0.30228138 2.53677e-40 -0.008053971 -0.86601084
00000000: c6dc 94bf d304 743d 109c 22bf 54da 843e
00000010: 1289 33bf 1e4b 063e 0e89 94bf cb61 7f3d
00000020: 3f85 e4be 4442 4b3e 10cd fe3b e867 0d3f
00000030: 38d5 403f 67f3 8dbf 3a86 713e e9eb 0100
00000040: 7bf6 10c0 b9ee 0580 93ac 143f a0c4 9abe
00000050: 26c3 0200 cef4 03bc e3b2 5dbf

encoder.level2_0.c1.conv.weight f4 [16, 23, 3, 3]
0.013906591 0.0069629075 0.006384782 0.031451624 -0.0003295921 -0.018212633 0.00016994773 0.008223614
0.008313226 0.005900376 0.00049515534 -0.006806856 0.025990698 0.025650559 -0.004593172 0.0076875994
0.007841313 0.0014545602 -0.034151483 -0.06912959 0.009390651 -0.050180506 -0.0897393 0.0043692724
-0.009158917 -0.056777984 0.012256634 0.057376847 0.1068858 0.019915825 0.08428337 0.14194848
0.05534031 0.0052439235 0.06107208 -0.0009694608 0.019645039 0.028974997 -0.0052655768 0.008162702
0.02309536 -0.009227114 0.02213584 0.0037832248 0.016456373 0.062228557 0.093263775 -0.014358621
0.13023078 0.14486726 0.0042161923 0.010377454 0.056825444 -0.043951046 0.01207978 0.010363311
0.004442899 0.030658929 0.055009965 0.014519626 0.008379581 0.011700063 -0.005277419 0.0002531935
0.022124553 0.004599685 0.05184656 0.050762236 0.015168214 -0.007521772 0.0033210157 0.009992802
0.014209461 0.017207623 -0.0009179607 0.04310545 0.02982523 0.0066475035 -0.005363381 0.0059504565
0.005637533 -0.005898838 0.010579829 0.0033389933 0.017116927 0.0005591979 0.004378737 -0.009942548
-0.001622228 -0.009569232 0.011389719 0.012409003 -0.0059511773 0.026805807 0.047031876 0.007120036
-0.014705266 0.008152366 -0.011156501 0.032793246 0.0480914 -0.03507288 0.066919334 0.049314238
-0.06391562 0.0052822456 0.006930932 -0.04392648 0.0109799635 0.046576973 0.048266895 0.010227277
0.044404365 0.045618627 0.01028049 0.04342791 0.043205444 0.0068315994 0.054750737 0.01682082
0.05220846 0.11726785 0.03546445 0.0098689245 0.049930003 0.029672673 0.039849427 0.00950077
-0.028488224 0.15807688 0.11416233 -0.002173558 0.12856361 0.083618775 -0.0012730507 -3.2114e-41
-1.30134e-40 -3.881e-41 -1.17866e-40 -7.8037e-41 6.6595e-41 -8.8577e-41 7.1847e-41 -6.6427e-41
-0.00029475265 -0.027842829 -0.013253112 -0.03810756 -0.04382513 -0.016610516 0.001432925 -0.0068123895
-0.009738124 1.22682e-40 1.6375e-40 1.6516e-40 -1.71875e-40 -2.07834e-40 -1.40142e-40 9.3524e-41
1.26427e-40 1.29473e-40 -0.0066686226 -0.020099116 -0.030315898 -0.02994427 -0.044671055 -0.043250956
0.0212012 -0.016551115 -0.004734635 0.051239677 0.04414198 -0.0075245034 0.02983259 0.01599073
-0.01719957 0.028967667 0.0055915145 -0.015194146 -8.5946e-41 -1.53208e-40 -1.4944e-40 -1.5167e-40
-4.383e-41 -1.64679e-40 -1.51864e-40 -1.0002e-40 -1.48357e-40 0.0028264697 0.0039340854 0.000618504
0.0031606653 0.0033417763 0.0009825263 0.0014968731 0.0013767097 0.0010202591 0.10309625 0.06729571
-0.0045944727 0.08227777 0.037471145 -0.009380176 0.0754381 0.031022778 0.014381323 -0.11563608
-0.030995704 -0.011115845 -0.14140388 -0.06564884 -0.012062914 -0.107727475 -0.01870515 -0.015277529
0.08451585 0.009466074 -0.0046187555 0.19339415 0.012183816 0.008485116 0.11481564 0.015381436
-0.005552401 0.016334865 -0.015429383 0.010460152 0.04094725 -0.020028953 -0.0014120818 -0.014789115
0.0005223558 0.0044198227 -0.026277214 0.023140617 -0.00020827686 -0.06300475 0.05627116 -0.0017117434
0.0016329894 -0.007516883 0.0026884396 -0.070677556 0.03227731 0.031663083 -0.018228805 0.01043405
-0.017456675 0.05172911 -0.023364695 -0.023057954 -0.03290181 0.023508914 -0.0005369923 -0.05101288
00000000: 78d8 633c 1a29 e43b 6f37 d13b 6bd3 003d
00000010: 1acd acb9 a932 95bc ff33 3239 56bc 063c
00000020: 3234 083c f157 c13b 50cd 013a 0c0c dfbb
00000030: 72ea d43c 1f21 d23c 5282 96bb 42e8 fb3b
00000040: da78 003c f1a6 be3a 6de2 0bbd d193 8dbd
00000050: 3fdb 193c 138a 4dbd 3dc9 b7bd 1d2c 8f3b
00000060: 480f 16bc 0890 68bd 0dd0 483c fc03 6b3d
00000070: f1e6 da3d 8326 a33c c29c ac3d f15a 113e
00000080: 85ac 623d 38d5 ab3b b826 7a3d 6a23 7eba
00000090: a2ee a03c f95c ed3c dc8a acbb dbbc 053c
000000a0: 7b32 bd3c 522d 17bc 3956 b53c fbef 773b
000000b0: 84cf 863c 5fe3 7e3d 1401 bf3d 6c40 6bbc
000000c0: 385b 053e 1558 143e fc27 8a3b 3206 2a3c
000000d0: ccc1 683d 0306 34bd 45ea 453c e0ca 293c
000000e0: bd95 913b 6f28 fb3c 2152 613d bae3 6d3c
000000f0: 834a 093c 9fb1 3f3c 33ee acbb 0ebf 8439
00000100: 8d3e b53c f4b8 963b 0f5d 543d 10ec 4f3d
00000110: 1a84 783c 3279 f6bb 66a5 593b d9b8 233c
00000120: cdce 683c 00f7 8c3c 4da3 70ba 578f 303d
00000130: 0a54 f43c 4dd3 d93b 4dbf afbb 0cfc c23b
00000140: 0ebb b83b 0a4b c1bb 0557 2d3c 03d3 5a3b
00000150: cc38 8c3c 2397 123a 827b 8f3b 12e6 22bc
00000160: f0a0 d4ba 45c8 1cbc f29b 3a3c 224f 4b3c
00000170: 1802 c3bb da97 db3c 7fa4 403d 314f e93b
00000180: 5bee 70bc 8091 053c c2c9 36bc 3652 063d
00000190: 7dfb 443d 95a8 0fbd 010d 893d bafd 493d
000001a0: 31e6 82bd b016 ad3b df1c e33b 41ec 33bd
000001b0: 4ee5 333c 7fc7 3e3d 82b3 453d 4f90 273c
000001c0: 5ae1 353d 99da 3a3d 806f 283c 77e1 313d
000001d0: 31f8 303d 9cdb df3b 4f42 603d d1cb 893c
000001e0: 8ad8 553d 202a f03d 2c43 113d 45b1 213c
000001f0: 6783 4c3d 1b14 f33c 2739 233d 1ea9 1b3c
00000200: 2360 e9bc e8de 213e f1cd e93d 4172 0ebb
00000210: 2ea6 033e 5240 ab3d 7edc a6ba 8559 0080
00000220: c36a 0180 306c 0080 9048 0180 89d9 0080
00000230: a4b9 0000 ebf6 0080 48c8 0000 2cb9 0080
00000240: 0889 9ab9 a516 e4bc 9523 59bc ac16 1cbd
00000250: fb81 33bd c712 88bc fcd0 bb3a 773a dfbb
00000260: a78c 1fbc fd55 0100 78c8 0100 66cc 0100
00000270: 1edf 0180 5b43 0280 a986 0180 b504 0100
00000280: 6d60 0100 eb68 0100 7684 dabb e7a6 a4bc
00000290: 0c59 f8bc b04d f5bc fff8 36bd ea27 31bd
000002a0: 24ae ad3c 3496 87bc ff24 9bbb b2e0 513d
000002b0: 39ce 343d 1c90 f6bb 7a63 f43c fefe 823c
000002c0: 1de6 8cbc 9a4d ed3c 0639 b73b def0 78bc
000002d0: 95ef 0080 15ab 0180 94a0 0180 cba6 0180
000002e0: 2e7a 0080 0fcb 0180 56a7 0180 d116 0180
000002f0: 8f9d 0180 4b3c 393b 80e9 803b 1a23 223a
00000300: 2a23 4f3b b401 5b3b 1dc8 803a ba32 c43a
00000310: b672 b43a 37ba 853a 2024 d33d 55d2 893d
00000320: 3b8d 96bb 3f81 a83d 587b 193d 4faf 19bc
00000330: 4a7f 9a3d 7b23 fe3c a49f 6b3c 9cd2 ecbd
00000340: b4ea fdbc 3c1f 36bc 2ecc 10be e672 86bd
00000350: 87a3 45bc 39a0 dcbd 8b3b 99bc 9a4e 7abc
00000360: a516 ad3d 9817 1b3c ee58 97bb 1e09 463e
00000370: a19e 473c 2805 0b3c 7624 eb3d 6b02 7c3c
00000380: eaf0 b5bb b2d0 853c 86cb 7cbc 0f61 2b3c
00000390: 4eb8 273d c213 a4bc 9a15 b9ba 0b4e 72bc
000003a0: b4ee 083a 29d4 903b 5043 d7bc 6491 bd3c
000003b0: e564 5ab9 a208 81bd 967c 663d 945c e0ba
000003c0: 080a d63a 2f50 f6bb 8830 303b 65bf 90bd
000003d0: 3635 043d 26b1 013d 9354 95bc 94f3 2a3c
000003e0: 4d01 8fbc e7e1 533d 5167 bfbc 09e4 bcbc
000003f0: 0cc4 06bd c495 c03c f1c4 0cba e2f2 50bd

encoder.level2_0.d1.conv.0.weight f4 [16, 1, 3, 1]
0.21506204 0.04105728 1.7100186 1.1347461 -0.7118722 -0.516473 0.68947065 -0.33386847
-0.030902268 -0.009998202 0.23108985 -2.1316378 -0.2846074 0.70843685 0.05374528 0.003686071
-0.6124082 0.61908144 0.0013535063 0.18839768 1.8452469 0.086976185 -0.38851282 0.8016557
-0.0786281 0.96542245 0.69233686 0.16824634 0.05080694 1.305012 -0.55924916 0.5914011
-0.032020085 0.33395267 -0.939284 -0.0906635 -0.0628309 -0.522934 0.5839155 -0.0145509215
-0.5324131 -1.0778986 2.4681065 0.13237521 -0.18322496 0.43922728 -0.96892416 0.036849868
00000000: 3939 5c3e ae2b 283d e4e1 da3f 5c3f 913f
00000010: 423d 36bf 9337 04bf 2681 303f cff0 aabe
00000020: c126 fdbc 80cf 23bc d1a2 6c3e c16c 08c0
00000030: 10b8 91be 1e5c 353f 0324 5c3d 0292 713b
00000040: c9c6 1cbf 1f7c 1e3f 2368 b13a 52eb 403e
00000050: 0d31 ec3f 9220 b23d 27eb c6be 4f39 4d3f
00000060: c507 a1bd ed25 773f fd3c 313f c548 2c3e
00000070: f01a 503d a20a a73f f42a 0fbf 1066 173f
00000080: 7e27 03bd d8fb aa3e eb74 70bf c9ad b9bd
00000090: 7dad 80bd 01df 05bf 7c7b 153f fd66 6ebc
000000a0: 3a4c 08bf 95f8 89bf 75f5 1d40 5e8d 073e
000000b0: 539f 3bbe 66e2 e03e 6a0b 78bf e3ef 163d

encoder.level2_0.d1.conv.1.weight f4 [16]
0.018403608 0.0027011095 0.32560048 0.0839196 0.0029328312 0.1727803 0.26359662 0.011685033
0.030043347 0.03786453 0.27967614 -0.021730648 0.42086393 -0.0067132763 0.031981926 0.08530588
00000000: 2ac3 963c 1905 313b 1bb5 a63e 0ade ab3d
00000010: be34 403b 52ed 303e 23f6 863e 9572 3f3c
00000020: 771d f63c d617 1b3d b631 8f3e 7904 b2bc
00000030: 7a7b d73e 0bfb dbbb 7bff 023d d9b4 ae3d

encoder.level2_0.d1.conv.1.bias f4 [16]
-0.121121906 -4.3506055 -0.02048895 0.052814424 -0.015738226 0.1401425 -0.0047749463 0.02220396
-0.3178302 -0.052592333 -0.007956379 -0.02570138 0.0015128169 0.002557668 -0.10435873 0.020463925
00000000: c30e f8bd 2938 8bc0 71d8 a7bc f053 583d
00000010: 74ed 80bc 8481 0f3e 2777 9cbb 14e5 b53c
00000020: a4ba a2be 0f6b 57bd 795b 02bc b38b d2bc
00000030: b649 c63a 8c9e 273b 08ba d5bd f6a3 a73c

encoder.level2_0.d1.conv.1.running_mean f4 [16]
-0.078634895 -0.017557222 0.021148924 -0.27935 0.07509244 -0.0009915474 -0.24900602 -0.07458407
-0.018414656 -0.42525452 7.303286e-05 0.17445073 0.00021252374 -0.15497734 0.05740766 0.07878137
00000000: 550b a1bd 2ad4 8fbc 8240 ad3c f706 8fbe
00000010: 11ca 993d cff6 81ba 6ffb 7ebe 88bf 98bd
00000020: 55da 96bc f6ba d9be 3829 9938 36a3 323e
00000030: e8d8 5e39 61b2 1ebe 4b24 6b3d 2058 a13d

encoder.level2_0.d1.conv.1.running_var f4 [16]
0.3232574 0.02836148 0.0058006765 0.3827423 0.033478208 0.00914006 0.05042545 0.030760596
0.007669942 0.38564724 0.005445721 0.040549982 0.011546089 0.06622752 1.3711208 0.012700999
00000000: fe81 a53e 5656 e83c 9a13 be3b ccf6 c33e
00000010: 7220 093d 31c0 153c eb8a 4e3d a5fd fb3c
00000020: 2354 fb3b 8e73 c53e 0572 b23b bd17 263d
00000030: cf2b 3d3c 4ba2 873d e380 af3f da17 503c

encoder.level2_0.d1.conv.2.weight f4 [16]
0.14824511 3.6814246 -0.72660744 0.22034632 -0.0007571208 0.6230577 -0.996966 0.19938545
0.09493117 0.04496981 -0.81951493 -0.59037215 -0.92965597 0.76434904 0.062237386 -0.23828995
00000000: 91cd 173e 769c 6b40 f202 3abf 77a2 613e
00000010: 8479 46ba b680 1f3f 2a39 7fbf b32b 4c3e
00000020: 466b c23d 4332 383d bbcb 51bf a122 17bf
00000030: effd 6dbf 61ac 433f a1ec 7e3d 4802 74be

encoder.level2_0.d1.conv.3.weight f4 [16, 1, 1, 3]
0.321116 -0.32264015 -0.0038721522 0.00040898885 5.149806 0.0009148519 0.028131658 -0.042506814
-5.1214705 0.029422408 -0.38690087 0.689592 0.30591828 -0.62672746 0.33279485 0.111659236
-2.74161 0.059023086 -0.66232026 -0.74859846 0.031171475 -0.07302393 0.09702134 -0.03196067
-0.011583772 0.16122572 -0.0027582005 0.25589874 -0.4496036 0.1288847 -0.30811873 -0.98376966
0.05460532 0.05844028 -0.11810665 0.043881956 -1.5345312 -0.28824988 0.2082528 0.3289078
-0.35717812 0.022755474 -0.35408148 0.37027875 -0.016729137 0.15191339 -0.22253673 0.2669366
00000000: 5169 a43e 1731 a5be efc3 7dbb 8e6d d639
00000010: 36cb a440 acd2 6f3a 5d74 e63c a01b 2ebd
00000020: 16e3 a3c0 4307 f13c df17 c6be 1a89 303f
00000030: 52a1 9c3e 3671 20bf 1664 aa3e 99ad e43d
00000040: 8a76 2fc0 31c2 713d d28d 29bf 26a4 3fbf
00000050: 525b ff3c 928d 95bd 20b3 c63d 31e9 02bd
00000060: dcc9 3dbc 5b18 253e edc2 34bb 2905 833e
00000070: 7132 e6be 5afa 033e bdc1 9dbe 54d8 7bbf
00000080: d4a9 5f3d 135f 6f3d e6e1 f1bd 91bd 333d
00000090: 856b c4bf 7d95 93be 3940 553e 9a66 a83e
000000a0: 0de0 b6be b069 ba3c 2b4a b5be 2d95 bd3e
000000b0: 8b0b 89bc 2f8f 1b3e abe0 63be eaab 883e

encoder.level2_0.d1.conv.4.weight f4 [16]
4.406224 1.5119077 0.22489317 0.5997689 2.959407 0.34483176 0.41296977 3.8814673
4.335841 2.4737382 0.40181077 4.00427 0.4295009 3.7453246 4.245057 0.26879382
00000000: c9ff 8c40 3186 c13f 654a 663e 748a 193f
00000010: ed66 3d40 ca8d b03e c670 d33e f669 7840
00000020: 36bf 8a40 ba51 1e40 24ba cd3e fb22 8040
00000030: 8be7 db3e 66b3 6f40 82d7 8740 589f 893e

encoder.level2_0.d1.conv.4.bias f4 [16]
0.003465473 -0.0003626981 -0.11157715 0.056827985 -0.017325852 0.010524018 0.14179286 0.04684589
0.054673772 -0.05048329 0.012025621 0.03334989 -0.005907867 0.016704997 -0.061495826 0.042734295
00000000: fd1c 633b 8428 beb9 9082 e4bd 76c4 683d
00000010: f2ee 8dbc ee6c 2c3c 2632 113e 7ae1 3f3d
00000020: 9bf1 5f3d 91c7 4ebd 1c07 453c e599 083d
00000030: c896 c1bb ebd8 883c 0ce3 7bbd 280a 2f3d

encoder.level2_0.d1.conv.4.running_mean f4 [16]
0.0001076025 -82.51586 -0.98375314 0.021581426 9.342878e-08 -0.3787693 -0.2304141 -0.0001763729
-0.0044125593 0.00015402307 -0.1743141 -0.00027076414 -0.37617815 -2.2657543e-05 -2.729248e-06 0.009153412
00000000: a7a8 e138 1f08 a5c2 3fd7 7bbf 88cb b03c
00000010: 04a3 c833 0dee c1be adf1 6bbe bdf0 38b9
00000020: 3b97 90bb 4181 2139 657f 32be 59f5 8db9
00000030: 6c9a c0be b410 beb7 2028 37b6 31f8 153c

encoder.level2_0.d1.conv.4.running_var f4 [16]
2.3153864e-07 0.002587405 1.0870194 0.0005283299 4.1798983e-13 0.18584962 0.05293343 1.8598624e-07
2.0954784e-07 1.12378125e-07 0.06268785 3.116033e-07 0.29340822 8.853238e-07 9.8417146e-08 0.0001584323
00000000: db9c 7834 7491 293b 7423 8b3f 9f7f 0a3a
00000010: af4e eb2a 5d4f 3e3e b9d0 583d 82b3 4734
00000020: 1200 6134 8754 f133 7d62 803d 6e4a a734
00000030: 9a39 963e fda6 6d35 6659 d333 d920 2639

encoder.level2_0.d1.conv.5.weight f4 [16, 1, 3, 3]
-0.028584313 0.23659699 -0.008024261 0.048659664 -1.3805972 0.097994685 -0.01013247 0.050911345
-0.029963277 0.032380957 -0.016397635 -0.023750324 0.013052421 -0.01891027 0.00048743776 0.0023245763
-0.017108532 0.04236251 -0.0008485919 -0.076715805 -0.034334686 0.3775947 0.036606785 -0.058580704
2.5217664 0.33549818 -0.053011976 0.20207597 0.0035882897 -0.000913898 -2.212994 0.14243327
0.11909606 0.2780657 -0.028882323 -0.014093306 0.011132718 0.031020418 -0.028835434 -0.013300916
0.01822291 -0.0040688626 0.046368796 -0.042868387 -0.019984443 -0.0026003 0.011885142 -0.02169113
0.03344918 -3.4637015 0.035775375 0.006205283 0.030807279 -0.026729193 -0.07209606 -0.028320974
-0.03836678 0.057409324 2.0198984 0.1859729 -0.06678093 -0.025340449 -0.03049418 0.01991768
-0.08125458 -0.027368143 0.051715948 1.0231693 -0.09315549 -0.01791804 -0.1689869 -0.035211794
-0.04528514 -0.024644908 -0.041739058 -0.058651946 1.1147434 -0.07231203 -0.0629511 -0.06588369
-0.06373075 -0.09169583 -0.12797877 0.120678484 0.69191223 1.0318155 -0.175692 -0.0030088215
0.028846817 0.19007955 0.02793905 -0.07221091 0.013927324 0.07156971 -0.22536233 0.054572012
0.25584367 -2.0871325 0.05162727 -0.012863407 -0.05440737 -0.019131096 0.003640792 0.95659494
-0.052550223 0.027770527 -0.027854528 -0.0020323049 -0.0026030482 -0.09198698 0.033932086 0.04476323
-2.8528993 -0.45656896 0.0055484287 -0.082694545 0.042419996 -0.012289269 0.066589996 -0.0033446234
-0.0024788808 0.88558006 0.0090077 0.0070914025 0.03872603 -0.007394937 -0.008883161 0.00014237844
0.0020120475 -0.002861835 0.059918813 -0.053591363 0.0028815418 -1.5448242 0.181044 -0.036363352
0.018036416 0.036740147 -0.7958405 -0.4652627 -0.20641269 -0.26279315 -0.10362871 0.012052239
00000000: a629 eabc 7b46 723e 3178 03bc 5b4f 473d
00000010: 69b7 b0bf 70b1 c83d a902 26bc 6a88 503d
00000020: 8c75 f5bc e5a1 043d 5554 86bc 0a90 c2bc
00000030: d2d9 553c b6e9 9abc ca8e ff39 eb57 183b
00000040: 3127 8cbc 5084 2d3d 0a74 5eba 2d1d 9dbd
00000050: 87a2 0cbd 1854 c13e fff0 153d 52f2 6fbd
00000060: 9f64 2140 6bc6 ab3e 1623 59bd 01ed 4e3e
00000070: 8329 6b3b a892 6fba b2a1 0dc0 07da 113e
00000080: a3e8 f33d a15e 8e3e 9f9a ecbc 9ce7 66bc
00000090: 0166 363c 881e fe3c 4a38 ecbc 16ec 59bc
000000a0: 3648 953c 1854 85bb 35ed 3d3d c396 2fbd
000000b0: 6ab6 a3bc cb69 2abb e6b9 423c 99b1 b1bc
000000c0: 0202 093d 49ad 5dc0 3389 123d b055 cb3b
000000d0: 8c5f fc3c 2ef7 dabc 19a7 93bd 6301 e8bc
000000e0: 7c26 1dbd 0a26 6b3d 0446 0140 ae6f 3e3e
000000f0: 71c4 88bd c696 cfbc eece f9bc 672a a33c
00000100: cd68 a6bd 2833 e0bc 1ad4 533d 36f7 823f
00000110: 4ec8 bebd dac8 92bc e70a 2dbe 3e3a 10bd
00000120: e97c 39bd 1ee4 c9bc 93f6 2abd 063d 70bd
00000130: e9af 8e3f 5418 94bd 82ec 80bd 07ee 86bd
00000140: 4485 82bd 06cb bbbd de0c 03be 4826 f73d
00000150: 2921 313f 8812 843f 9be8 33be a62f 45bb
00000160: 2950 ec3c 37a4 423e 6fe0 e43c 50e3 93bd
00000170: 6e2f 643c 2493 923d 62c5 66be e786 5f3d
00000180: f1fd 823e 9493 05c0 1e77 533d 0ac1 52bc
00000190: 43da 5ebd d1b8 9cbc 5b9a 6e3b 68e3 743f
000001a0: e73e 57bd 047f e33c 2e2f e4bc 6b30 05bb
000001b0: e797 2abb ab63 bcbd 5ffc 0a3d a659 373d
000001c0: e795 36c0 68c3 e9be 98cf b53b c25b a9bd
000001d0: 97c0 2d3d ee58 49bc 5660 883d 7831 5bbb
000001e0: b874 22bb 60b5 623f 0895 133c ff5e e83b
000001f0: 309f 1e3d 3a51 f2bb ad8a 11bc 6c4b 1539
00000200: 8edc 033b a08d 3bbb 6e6d 753d 9e82 5bbd
00000210: 40d8 3c3b cdbc c5bf 9963 393e bdf1 14bd
00000220: 1bc1 933c d67c 163d 34bc 4bbf ea36 eebe
00000230: d95d 53be d38c 86be 4a3b d4bd c176 453c

encoder.level2_0.d1.conv.6.weight f4 [16, 16, 1, 1]
-0.16599664 0.013786085 -0.0032095134 -0.00019979544 0.00011708576 0.0014647016 0.010385858 -0.02551942
0.004977447 -0.023689864 4.7363403e-05 0.007596989 -0.002372238 0.008829974 0.14052092 -0.0046842126
0.04871268 0.015421102 -0.022454115 -0.13434708 -3.4970344e-05 -0.007970644 0.09431118 -0.02829818
-0.008681378 0.048911188 0.0044838707 -0.032286055 -0.018716706 0.0019355454 -0.011093943 0.09893585
0.0038628026 0.013046027 0.006022019 0.00050488085 -1.7233347e-06 -0.11424079 -0.002411302 -0.002441858
-0.22859518 -0.0065050665 -0.00019560482 0.003782044 0.0026006855 -0.0056694495 -0.012642096 0.0001164815
-0.031709585 -0.016288504 -0.017351868 0.018299406 -6.9767935e-05 0.0017788989 0.005613903 0.033126205
-0.0065410906 0.006991043 -0.17277971 -0.011262239 -0.142188 0.016997214 -0.0003924677 0.053138528
-0.0033664661 -0.011581987 0.0039554625 -0.0005191747 -5.6605604e-05 -0.16970053 0.005347734 0.005107673
0.018031586 0.0028253384 -0.001520627 -0.00069169607 -0.0039406316 0.0021725437 -0.004459382 0.01668921
-0.011402262 0.01018357 0.0033070706 -0.0052121473 -7.149254e-06 0.0023407484 -0.0065154275 -0.17559476
-0.0022258558 0.014709413 -0.0031404253 -0.05962738 -0.0074079777 -0.003930707 -0.016030813 0.035762455
0.09121571 0.005385856 -0.0046921414 0.0006968837 -1.3367627e-05 0.014068549 0.007396993 -0.024599174
0.003156251 -0.0019310268 0.00050063385 -0.04348512 -0.01500982 -0.008334806 -0.1487129 0.00792429
0.062219158 -0.010765999 -0.021049347 0.23005295 5.9627426e-05 0.007925698 -0.039536238 0.008557405
0.0037431486 -0.060685266 0.01842094 0.019018538 0.010335888 0.014794047 0.0060951165 0.091683395
0.00571439 -0.00023381079 -0.07799628 -0.09240459 6.0065217e-05 -0.0009395455 -0.051929474 -0.007465125
0.00019362342 -0.110512555 0.020031784 -0.0029118054 0.12765673 0.0038557488 0.05051145 0.02635521
-0.09748986 -0.007546197 -0.0013633519 -0.06578416 -6.65275e-05 0.0051620877 -0.024208078 0.00034336708
-0.004415416 -0.042925313 -0.02124313 0.08465884 -0.00069192686 0.017085323 -0.043754123 -0.06576334
0.009242017 0.005627557 0.032715052 0.0005984501 -9.8052005e-05 -0.0019031722 -0.018477006 0.009153256
-0.0028012756 0.0023070925 0.19819285 0.03195775 -0.05218235 0.007862669 -0.0036068822 0.12957178
0.014840471 -0.0064410237 0.21626005 -0.008746183 6.571183e-05 0.008117585 -0.005035211 0.0029261957
0.011514669 0.0073981783 -0.01469584 -0.005087641 -0.25269362 -0.004264362 -0.0135669615 -0.0012410933
-0.029133078 0.019551003 0.009668297 -0.0030083426 9.4850046e-05 0.00065502705 0.0033980468 0.0007923931
0.0034880221 0.017142301 4.455557e-05 -0.023941379 0.00020199777 0.17344972 -0.022778882 0.026065106
-0.0009898853 -0.017957892 -0.013176725 -0.031326454 0.00025152398 -0.010619369 -0.27157134 -0.016832558
-0.016918065 -0.018455707 -0.0077919583 -0.030080719 -0.04434534 -0.0016423571 -0.00648475 0.007938242
0.010744599 0.012047384 0.010346497 -0.0115834 3.3521843e-05 0.00047721106 -0.016187008 -0.024267323
-0.013677956 -0.0058626533 0.020191168 -0.17438738 -0.0058651855 0.043485988 -0.007931754 -0.13135599
-0.030994501 -0.0034814174 0.03261132 -0.008064956 5.90279e-07 0.004248682 -0.07035236 -0.0084120985
-0.01023448 0.033732448 -0.040793724 0.03222381 -0.022953978 -0.026338825 -0.050689217 0.058274396
00000000: 06fb 29be 08df 613c b356 52bb 2e80 51b9
00000010: f08b f538 3bfb bf3a 7229 2a3c 1a0e d1bc
00000020: da19 a33b 3f11 c2bc 11a8 4638 2af0 f83b
00000030: 8d77 1bbb 98ab 103c b7e4 0f3e 067e 99bb
00000040: f286 473d caa8 7c3c b1f1 b7bc 4892 09be
00000050: 1fad 12b8 4e97 02bc 3826 c13d 96d1 e7bc
00000060: 573c 0ebc 1957 483d 6fed 923b 623e 04bd
00000070: c753 99bc 20b2 fd3a 5fc3 35bc e19e ca3d
00000080: 1327 7d3b 01bf 553c 5b54 c53b fb59 043a
00000090: 544d e7b5 13f7 e9bd ef06 1ebb 9407 20bb
000000a0: db14 6abe 7428 d5bb 451b 4db9 2bdc 773b
000000b0: 4370 2a3b cac6 b9bb cb20 4fbc 8747 f438
000000c0: e9e1 01bd 786f 85bc 8125 8ebc a3e8 953c
000000d0: 6050 92b8 f129 e93a d5f4 b73b 58af 073d
000000e0: a556 d6bb 1f15 e53b 2aed 30be 4185 38bc
000000f0: bb99 11be be3d 8b3c 1fc4 cdb9 c9a7 593d
00000100: ee9f 5cbb 60c2 3dbc d39c 813b 3919 08ba
00000110: ce6b 6db8 fac5 2dbe 0b3c af3b 445e a73b
00000120: fab6 933c 5029 393b c64f c7ba f052 35ba
00000130: 6a20 81bb 3c61 0e3b 0220 92bb cfb7 883c
00000140: 8ed0 3abc fdd8 263c 70bb 583b a9ca aabb
00000150: a0e3 efb6 3e67 193b 5e7f d5bb 1dcf 33be
00000160: aadf 11bb c0ff 703c 98cf 4dbb d73b 74bd
00000170: 9fbe f2bb 29cd 80bb 0d53 83bc a77b 123d
00000180: 4dcf ba3d d67b b03b 89c0 99bb 13af 363a
00000190: 8545 60b7 c57f 663c 7a62 f23b 3584 c9bc
000001a0: 1bd9 4e3b 821a fdba f83c 033a 741d 32bd
000001b0: c0eb 75bc b68e 08bc 3248 18be e2d4 013c
000001c0: 84d9 7e3d df63 30bc ae6f acbc 0093 6b3e
000001d0: 7618 7a38 c9da 013c c0f0 21bd 5c34 0c3c
000001e0: 9d4f 753b 1d91 78bd 83e7 963c c4cc 9b3c
000001f0: db57 293c bb62 723c 8bb9 c73b 81c4 bb3d
00000200: c73f bb3b 1b2b 75b9 83bc 9fbd 9e3e bdbd
00000210: 89ee 7b38 d54b 76ba 00b4 54bd 029e f4bb
00000220: 6407 4b39 6854 e2bd b219 a43c fdd3 3ebb
00000230: 72b8 023e bbb0 7c3b 18e5 4e3d e2e6 d73c
00000240: c4a8 c7bd 1746 f7bb 80b2 b2ba d8b9 86bd
00000250: ae84 8bb8 bb26 a93b 0550 c6bc f305 b439
00000260: 32af 90bb 74d2 2fbd 1306 aebc 9d61 ad3d
00000270: 6d62 35ba 85f6 8b3c 8637 33bd eeae 86bd
00000280: d46b 173c 5f67 b83b 3800 063d 4ee1 1c3a
00000290: 45a1 cdb8 dd73 f9ba 175d 97bc 8af7 153c
000002a0: 9b95 37bb 9732 173b 11f3 4a3e 21e6 023d
000002b0: 29bd 55bd 6dd2 003c 7161 6cbb 77ae 043e
000002c0: 7225 733c 390f d3bb 4673 5d3e 264c 0fbc
000002d0: c5ce 8938 9fff 043c 69fe a4bb 6bc5 3f3b
000002e0: 06a8 3c3c 6b6c f23b d2c6 70bc 3ab6 a6bb
000002f0: 0f61 81be 10bc 8bbb f647 5ebc 2eac a2ba
00000300: 7ea8 eebc 6d29 a03c c767 1e3c 9d27 45bb
00000310: 3bea c638 1fb6 2b3a c4b1 5e3b 9ab8 4f3a
00000320: 4d97 643b 036e 8c3c 2ee1 3a38 b620 c4bc
00000330: 5dcf 5339 ce9c 313e c79a babc 7d86 d53c
00000340: 0abf 81ba 6e1c 93bc 31e3 57bc 2b50 00bd
00000350: fade 8339 ddfc 2dbc 660b 8bbe 6fe4 89bc
00000360: c197 8abc 6c30 97bc af53 ffbb d76b f6bc
00000370: 76a3 35bd 5c44 d7ba 077e d4bb 660f 023c
00000380: 1d0a 303c 6462 453c 5b84 293c 4dc8 3dbc
00000390: ce99 0c38 2f32 fa39 9e9a 84bc 44cc c6bc
000003a0: 8119 60bc 801b c0bb f367 a53c 9b92 32be
000003b0: be30 c0bb 5d1e 323d 30f4 01bc 2f82 06be
000003c0: 2ee8 fdbc 7e28 64bb 7393 053d e122 04bc
000003d0: aa73 1e35 8738 8b3b e614 90bd e6d2 09bc
000003e0: 85ae 27bc 092b 0a3d 5217 27bd 1dfd 033d
000003f0: fb09 bcbc 85c4 d7bc 7f9f 4fbd 22b1 6e3d

encoder.level2_0.d2.conv.0.weight f4 [16, 1, 7, 1]
0.061526522 0.011030813 0.030524528 0.39645565 -1.3719172 0.43172902 0.06079313 0.11400279
0.02215362 0.020107634 0.14167856 -3.01388 0.19483888 0.057543993 0.030561164 0.050935134
0.07408916 -0.18772522 -3.216279 -0.10231666 0.03251535 -0.12985033 -0.0033414336 0.02538679
-0.23109138 1.5636642 -0.22896355 0.0004257695 0.007378687 0.03984089 0.0795165 0.3401832
-1.3545187 0.30114427 0.117874876 0.0018233915 -0.06333793 0.04549455 -0.18929993 2.4054656
-0.14062172 0.00716836 -0.38023615 0.38187736 0.04360034 -0.20004435 0.7841653 0.16103962
-0.7214809 -0.022961812 0.046011712 -0.008519841 0.43733177 -1.7920785 0.400343 0.050114136
0.06836791 0.08937401 0.06724677 0.3053921 -1.2607617 0.0747292 0.024576824 0.08137841
-0.004919886 0.022922462 -0.14338896 3.6128268 -0.24112381 0.022960635 0.101356946 0.0490819
0.12956375 0.32640958 -1.4197246 0.08695824 0.36448303 1.9047744 -0.45822865 0.11561561
-0.1398423 -0.04024325 0.026161978 -0.20822275 0.14716308 0.13693154 0.34517354 -0.79617
-0.6690834 0.5526583 0.22429922 0.022275714 0.024306312 0.02964406 0.73117477 -0.87729514
0.12256568 -0.054467533 0.056802858 -0.0021295804 0.046509195 0.46982267 -1.1824509 0.31943515
0.12978266 0.027575798 -0.052938998 0.70173305 0.048494738 -0.79890555 0.13943669 0.5189642
00000000: 3c03 7c3d 95ba 343c 930e fa3c 3cfc ca3e
00000010: fc9a afbf 960b dd3e 3802 793d 4b7a e93d
00000020: 827b b53c c4b8 a43c 2f14 113e 69e3 40c0
00000030: d883 473e 40b3 6b3d 685b fa3c 5ca1 503d
00000040: 0fbc 973d 0a3b 40be 84d7 4dc0 668b d1bd
00000050: d12e 053d 7cf7 04be f4fb 5abb f5f7 cf3c
00000060: 38a3 6cbe 2626 c83f 6c75 6abe d139 df39
00000070: eac8 f13b 3330 233d 8cd9 a23d 7e2c ae3e
00000080: de60 adbf 952f 9a3e 6268 f13d defe ee3a
00000090: 51b7 81bd 7e58 3a3d d7d7 41be 26f3 1940
000000a0: 24ff 0fbe 90e4 ea3b 50ae c2be 6e85 c33e
000000b0: 4596 323d 6dd8 4cbe 0fbf 483f 92e7 243e
000000c0: f9b2 38bf 691a bcbc c776 3c3d ce96 0bbc
000000d0: f3e9 df3e d462 e5bf c2f9 cc3e 7b44 4d3d
000000e0: 7a04 8c3d b909 b73d adb8 893d 5a5c 9c3e
000000f0: a460 a1bf 9f0b 993d 5655 c93c b9a9 a63d
00000100: ff36 a1bb e3c7 bb3c 8ed4 12be 8e38 6740
00000110: 29e9 76be f117 bc3c 3b94 cf3d 1a0a 493d
00000120: 5cac 043e 281f a73e 89b9 b5bf 2917 b23d
00000130: 859d ba3e a6cf f33f f29c eabe e0c7 ec3d
00000140: d232 0fbe 1bd6 24bd a551 d63c 5838 55be
00000150: ebb1 163e c837 0c3e 96ba b03e ccd1 4bbf
00000160: 0d49 2bbf 047b 0d3f b2ae 653e 8f7b b63c
00000170: 081e c73c 1ad8 f23c 452e 3b3f 6a96 60bf
00000180: b703 fb3d 5919 5fbd 1daa 683d 6e90 0bbb
00000190: 6d80 3e3d 998c f03e 8d5a 97bf 018d a33e
000001a0: bfe5 043e a4e6 e13c 90d6 58bd c7a4 333f
000001b0: 6ba2 463d 1385 4cbf 7ec8 0e3e d6da 043f

encoder.level2_0.d2.conv.1.weight f4 [16]
0.09050276 0.19941382 0.25909147 0.09696049 0.16622107 0.21238273 -0.0029537 0.23595455
0.23949043 0.19942644 0.23381622 0.21608475 0.04904066 0.26825985 0.15209913 0.11361058
00000000: 8359 b93d 2333 4c3e a3a7 843e 3993 c63d
00000010: db35 2a3e dc7a 593e dd92 41bb 129e 713e
00000020: fb3c 753e 7236 4c3e 856d 6f3e 5245 5d3e
00000030: dcde 483d 5b59 893e e0bf 1b3e aaac e83d

encoder.level2_0.d2.conv.1.bias f4 [16]
0.20622742 0.2328655 -0.005413131 0.13504677 0.2445568 0.0038436116 -2.4319205 0.34346983
-0.0023767764 -0.012374578 0.082714684 0.16816545 0.22183977 -0.0056651602 0.18693364 0.11830733
00000000: 482d 533e 4b74 6e3e a260 b1bb b349 0a3e
00000010: 196d 7a3e 1ae5 7b3b 96a4 1bc0 47db af3e
00000020: b1c3 1bbb bebe 4abc 5166 a93d 9033 2c3e
00000030: f729 633e cfa2 b9bb 886b 3f3e 1d4b f23d

encoder.level2_0.d2.conv.1.running_mean f4 [16]
0.016353315 -0.42496493 -0.22204456 0.14678411 -0.07445318 -0.27129287 -0.00974084 0.13330412
0.007364454 -0.92834646 0.023795107 -0.28928173 0.00045022464 0.00010547416 -0.003286654 -0.09025019
00000000: 63f7 853c 0195 d9be a65f 63be 934e 163e
00000010: e97a 98bd e6e6 8abe 0b98 1fbc e080 083e
00000020: 8551 f13b 1da8 6dbf f5ed c23c bc1c 94be
00000030: 210c ec39 0232 dd38 e764 57bb 17d5 b8bd

encoder.level2_0.d2.conv.1.running_var f4 [16]
0.028058812 0.1895421 0.10452982 0.1344547 0.05218085 0.12286144 0.012515544 0.109632246
0.01219323 2.2648733 0.04704298 0.1404941 0.040862978 0.0053019347 0.035452545 0.016891956
00000000: 98db e53c 5317 423e bb13 d63d 7eae 093e
00000010: 96bb 553d c79e fb3d ff0d 4d3c df86 e03d
00000020: 1dc6 473c aff3 1040 24b0 403d afdd 0f3e
00000030: f05f 273d dabb ad3b b036 113d 0061 8a3c

encoder.level2_0.d2.conv.2.weight f4 [16]
0.24754147 0.40415263 -0.85081196 -0.032528725 0.2608845 -0.8329349 -2.4112427 -0.1543681
-0.87952703 0.37973115 -0.1259677 -0.03709506 -0.0072429515 -0.81563365 0.62047684 0.042761635
00000000: 837b 7d3e 18ed ce3e d0ce 59bf d73c 05bd
00000010: a792 853e 393b 55bf cd51 1ac0 ac12 1ebe
00000020: af28 61bf 1f6c c23e adfd 00be fdf0 17bd
00000030: 4856 edbb 5ecd 50bf 92d7 1e3f d326 2f3d

encoder.level2_0.d2.conv.3.weight f4 [16, 1, 1, 7]
-0.031554185 -0.085203744 -0.17775166 1.3813992 -0.40221208 -0.102042355 -0.06366457 -0.028983323
-0.09288233 -1.0100101 0.9414238 0.10413974 0.049266834 0.038472302 0.1174398 -0.35129863
1.0108533 1.5589137 -0.30361247 0.1880803 -0.17364907 -0.22745764 -0.7888519 0.11420379
-10.465492 1.4444861 -0.72021145 0.17316492 -0.13832858 -0.23907167 -0.9465769 0.8141093
0.5083388 0.028815132 0.059611592 -0.04397013 -0.10770833 -0.46068642 -1.6575129 -0.080268815
-0.13813056 0.063478224 0.004496953 0.004358865 0.0028155898 -9.937815 0.0050341957 0.0046883025
0.0038113932 0.0013083306 -0.04200222 -0.40051678 1.6781114 -0.2881272 -0.086799875 -0.049771816
-0.0033511994 0.3326267 -0.93646973 -1.6587052 0.21737637 0.042055607 0.03211842 -0.029934982
0.16333042 0.21297628 -1.9801894 0.36450797 0.03067944 0.046427716 0.006865282 -0.17711213
-0.32362065 1.5685483 -0.3967899 -0.08856757 -0.047858506 -0.027794702 0.35529587 -0.31398603
-1.545503 0.4465629 0.041055754 -0.065123744 -0.376649 0.3791995 -0.8241462 -0.26486978
-0.31052482 -0.57718176 -0.35095248 -0.05199322 -0.039549027 0.18257152 -0.42587373 0.23951325
0.47198153 -3.7450695 0.07134345 -0.02507096 0.3501223 -1.9982402 0.24561584 0.08972856
0.07764602 -1.036352 -0.122570805 0.05384641 0.19519415 0.13000125 -0.017354434 -0.8361303
00000000: f63e 01bd 4d7f aebd 8804 36be b0d1 b03f
00000010: beee cdbe 95fb d0bd 9262 82bd 6f6e edbc
00000020: 1739 bebd 0348 81bf 2601 713f 3747 d53d
00000030: 05cc 493d 2295 1d3d 4784 f03d 6add b3be
00000040: a463 813f 7c8a c73f 1873 9bbe 1f98 403e
00000050: 10d1 31be a8ea 68be 33f2 49bf ade3 e93d
00000060: a872 27c1 ece4 b83f c75f 38bf 2552 313e
00000070: 02a6 0dbe 34cf 74be dd52 72bf 7869 503f
00000080: 7e22 023f b60d ec3c 492b 743d 061a 34bd
00000090: 2f96 dcbd 17df ebbe 6229 d4bf fa63 a4bd
000000a0: 1972 0dbe df00 823d 2d5b 933b cfd4 8e3b
000000b0: c285 383b 4a01 1fc1 e5f5 a43b 55a0 993b
000000c0: 91c8 793b 4a7c ab3a 850a 2cbd 8910 cdbe
000000d0: 5bcc d63f 6985 93be 22c4 b1bd 88dd 4bbd
000000e0: cc9f 5bbb 0c4e aa3e 7bbc 6fbf 7450 d4bf
000000f0: e997 5e3e 8042 2c3d 9b8e 033d 353a f5bc
00000100: 1740 273e 7416 5a3e d976 fdbf caa0 ba3e
00000110: 7353 fb3c fd2a 3e3d 29f6 e03b e25c 35be
00000120: 9bb1 a5be 31c6 c83f 0c28 cbbe ea62 b5bd
00000130: 4807 44bd b7b1 e3bc 57e9 b53e c7c2 a0be
00000140: 0bd3 c5bf e4a3 e43e 142a 283d 995f 85bd
00000150: 23d8 c0be 7026 c23e 3ffb 52bf 039d 87be
00000160: 1cfd 9ebe 2fc2 13bf 0bb0 b3be d8f6 54bd
00000170: 29fe 21bd 07f4 3a3e 1f0c dabe f642 753e
00000180: 90a7 f13e 38af 6fc0 841c 923d 9d61 cdbc
00000190: 3b43 b33e 56c6 ffbf b882 7b3e 9bc3 b73d
000001a0: e004 9f3d 2fa7 84bf 6706 fbbd 0e8e 5c3d
000001b0: fae0 473e 0c1f 053e e32a 8ebc a30c 56bf

encoder.level2_0.d2.conv.4.weight f4 [16]
0.40811208 0.4188414 0.2751785 0.3970143 0.2561194 -0.22615007 0.8784185 0.40675336
0.3161696 0.43644232 0.30684328 0.24235962 0.16154628 0.3431814 0.48598787 0.10529992
00000000: 11f4 d03e 6172 d63e 32e4 8c3e 7545 cb3e
00000010: 1522 833e e293 67be 09e0 603f fa41 d03e
00000020: fbe0 a13e 5e75 df3e 901a 9d3e 1f2d 783e
00000030: 636c 253e 79b5 af3e 67d3 f83e 7ca7 d73d

encoder.level2_0.d2.conv.4.bias f4 [16]
0.07666087 0.048883706 0.017897904 -0.011658382 0.04133548 0.038235806 0.007280739 -0.038282342
-0.018827902 0.1416594 0.028800547 -0.0756707 -0.01961567 0.05316854 0.05793517 -0.1660221
00000000: 6000 9d3d 483a 483d a09e 923c cc02 3fbc
00000010: 644f 293d 269d 1c3d 4493 ee3b f2cd 1cbd
00000020: f93c 9abc 290f 113e 20ef eb3c 3df9 9abd
00000030: 0bb1 a0bc 41c7 593d 6e4d 6d3d b301 2abe

encoder.level2_0.d2.conv.4.running_mean f4 [16]
0.10874786 0.001243546 0.33498633 -1.4164739 0.02382043 -0.32088506 -58.13885 0.28813222
-0.2935673 -0.035188638 0.07218384 -0.22368531 -0.5130114 -0.46562794 -0.22632617 -0.20867707
00000000: 33b7 de3d 7bfe a23a 5483 ab3e 044f b5bf
00000010: 1023 c33c 0c4b a4be 2f8e 68c2 1186 933e
00000020: 744e 96be f621 10bd 1fd5 933d c30d 65be
00000030: b754 03bf c966 eebe 0cc2 67be 71af 55be

encoder.level2_0.d2.conv.4.running_var f4 [16]
0.005804427 0.05963247 0.12757254 0.9829261 0.01568879 0.082238086 0.005056507 0.044798538
0.11218291 0.017971544 0.026520273 0.03266085 0.00802402 0.49460304 0.049893614 0.018799162
00000000: 1033 be3b 2d41 743d 60a2 023e 0ba1 7b3f
00000010: c785 803c 716c a83d 0eb1 a53b ac7e 373d
00000020: 27c0 e53d 0f39 933c 0b41 d93c 62c7 053d
00000030: 2e77 033c 9c3c fd3e 3f5d 4c3d b300 9a3c

encoder.level2_0.d2.conv.5.weight f4 [16, 1, 3, 3]
0.017317861 -0.033379775 0.02569515 0.03379486 -1.6128746 0.01936555 0.031123765 0.09239864
0.030640662 -0.0018989713 -0.114646025 1.1342053e-05 0.0073563564 -2.458911 -0.036635466 -0.013063624
-0.011234028 0.0017756193 0.00759744 0.01422625 -0.004497827 -0.034625966 -1.650985 -0.12645435
0.003662182 0.010079653 0.012923298 0.017650936 0.038365725 0.0044463244 0.015749963 1.0920362
0.072720066 0.0176996 -0.079732075 -0.011222047 -0.0036917613 0.0035024916 -0.03042737 0.090453245
2.2155082 0.10320824 0.0012119543 -0.032467436 -0.01820568 -0.026267776 -0.10653222 -0.041139163
-0.05421225 -1.2092226 -0.038300686 -0.017988082 -0.06567303 -0.050663263 -0.03663183 0.008672518
0.011228832 0.014702198 0.005580973 0.0069496445 0.05379236 0.026374217 -0.023125987 -0.04476629
-0.082387656 -0.011607957 -0.062109143 1.8253962 0.0048771314 -0.040583774 -0.051514436 0.00078240107
0.06149682 0.033835035 0.04569307 0.05653816 -1.5050366 0.03096294 0.060173534 0.029553324
0.032220297 0.0031253658 0.1275448 0.0055284975 0.042456377 -1.8625188 0.0083818855 0.0016290954
0.03796626 0.00066804216 0.04731047 -0.0143059315 0.04159554 0.0052792183 -1.3861308 0.02424634
0.057349067 0.06432674 0.06573974 0.023149237 0.15653656 0.040084995 -0.013157168 0.18496554
0.011308933 -0.009815696 -1.392409 0.024943214 -0.037272695 -0.12913692 0.06480159 -0.3673628
-1.007125 -0.14386024 0.008474158 -0.13502388 0.08474208 0.08823522 0.010136635 -0.009623731
1.3800888 0.10848545 0.024198635 0.053084455 0.00860683 -0.008091044 -0.015680904 0.054576755
-0.02370403 -0.020028746 1.7534857 -0.041259784 -0.0045534824 -0.07793465 -0.033925023 0.23657882
0.047647383 0.08359317 0.46676373 0.15088016 0.629936 0.2916678 0.027071655 0.10874742
00000000: 30de 8d3c 3bb9 08bd a37e d23c 7b6c 0a3d
00000010: ad72 cebf 80a4 9e3c 44f7 fe3c 803b bd3d
00000020: 2002 fb3c e7e6 f8ba 89cb eabd bf49 3e37
00000030: 970d f13b cc5e 1dc0 120f 16bd cf08 56bc
00000040: ee0e 38bc e6bb e83a f2f3 f83b 3815 693c
00000050: 8262 93bb f5d3 0dbd 7a53 d3bf 407d 01be
00000060: 3801 703b 2125 253c 3ebc 533c b298 903c
00000070: 6125 1d3d 79b2 913b 1106 813c d8c7 8b3f
00000080: 42ee 943d c0fe 903c 924a a3bd addc 37bc
00000090: 7af1 71bb 0f8a 653b d242 f9bc 8d3f b93d
000000a0: e3ca 0d40 d75e d33d 70da 9e3a 93fc 04bd
000000b0: 1424 95bc 852f d7bc 912d dabd 8a81 28bd
000000c0: aa0d 5ebd cec7 9abf 2ee1 1cbd be5b 93bc
000000d0: 957f 86bd 4884 4fbd 420b 16bd 2d17 0e3c
000000e0: 23f9 373c 7de1 703c 98e0 b63b d8b9 e33b
000000f0: 6155 5c3d be0e d83c b672 bdbc db5c 37bd
00000100: dcba a8bd 4d2f 3ebc 2866 7ebd 95a6 e93f
00000110: 58d0 9f3b 2c3b 26bd cd00 53bd 0c1a 4d3a
00000120: 17e4 7b3d 9b96 0a3d a828 3b3d 8f94 673d
00000130: 0aa5 c0bf fea5 fd3c 8678 763d d019 f23c
00000140: 6ef9 033d f0d2 4c3b 1b9b 023e 6628 b53b
00000150: bde6 2d3d 0467 eebf 2d54 093c 5f87 d53a
00000160: 8282 1b3d 8d1f 2f3a a0c8 413d 6d63 6abc
00000170: 1660 2a3d 4bfd ac3b bc6c b1bf 43a0 c63c
00000180: dbe6 6a3d bdbd 833d 8fa2 863d 78a3 bd3c
00000190: 1f4b 203e 2a30 243d 2a91 57bc 9b67 3d3e
000001a0: 1a49 393c 03d2 20bc 753a b2bf b655 cc3c
000001b0: 41ab 18bd 783c 04be b2b6 843d fa16 bcbe
000001c0: 79e9 80bf 1950 13be 32d7 0a3c b343 0abe
000001d0: 418d ad3d abb4 b43d 2114 263c daac 1dbc
000001e0: c0a6 b03f 9f2d de3d 373c c63c 166f 593d
000001f0: a903 0d3c 4c90 04bc 3d75 80bc e08b 5f3d
00000200: f42e c2bc 5313 a4bc 3872 e03f 0500 29bd
00000210: 6135 95bb 349c 9fbd f7f4 0abd b841 723e
00000220: e729 433d e532 ab3d a8fb ee3e 5480 1a3e
00000230: 7c43 213f 7b55 953e 60c5 dd3c f8b6 de3d
