result/SINet/SINet.pth (torch_old, 631433 bytes, 534 tensors)

encoder.level1.conv.weight f4 [16, 3, 3, 3]
000000 ed 00 7d bd a2 07 90 bd 71 a5 da bd ce f7 d4 bd
       -0.06176846 -0.07032706 -0.10676087 -0.103988275
000010 24 38 0d be da 46 36 be 6b 33 ad bd e4 f6 b7 bd
       -0.13790947 -0.17800465 -0.08457073 -0.089826375
000020 d5 4a 04 be 4f 55 47 3e e1 bc 5c 3e f4 7e 75 3e
       -0.12919171 0.19466136 0.21556427 0.2397421
000030 d8 70 42 3e 60 70 48 3e b0 2f 64 3e e3 8a 4e 3e
       0.18988359 0.19574118 0.22283816 0.20170169
000040 4c 89 6a 3e ab 71 83 3e 0b ea f2 bd 27 0f 04 be
       0.22903937 0.2567266 -0.118610464 -0.12896405
000050 fc bc 34 be 9d d2 2c be 69 41 52 be fa 34 84 be
       -0.17650217 -0.16877218 -0.20532764 -0.25821668
000060 ad 54 0f be 0d d9 28 be 66 b6 55 be 99 6e 0f bb
       -0.13997145 -0.16489048 -0.2087036 -0.002188599
000070 1e 00 56 ba 52 54 56 bd e9 6e 1e 3d 92 2c 83 3d
       -0.00081634696 -0.052326508 0.03867999 0.064049855
000080 61 66 36 3d 38 13 b4 3b 5a 0a b1 3d 2a 61 a2 3d
       0.04453123 0.005495455 0.086445525 0.07928689
000090 d1 d5 04 3c af 58 83 3c 92 3b f8 bc 83 61 cf 3c
       0.008107618 0.016033499 -0.030301843 0.025315052
0000a0 85 43 69 3d e2 7d 0a 3d ac 3d 4c 3d 0a 44 00 3e
       0.056949157 0.033811457 0.049863502 0.12525955
0000b0 29 0c e0 3d 54 dd da bc bb 04 e0 bc 0a 81 bc bd
       0.10939819 -0.026716866 -0.027346006 -0.092043
0000c0 0f 8c ef 3c 85 a7 60 3d c0 c6 13 3c e0 1d a3 3c
       0.02924159 0.05484726 0.009019554 0.019911706
0000d0 00 c6 ac 3d 47 92 6e 3d 54 17 28 3d e2 59 16 3d
       0.08436203 0.05824497 0.041037872 0.036706813
0000e0 41 a5 82 3b 36 b0 13 3d f3 09 f4 3c dc 79 9b bc
       0.003986985 0.03605672 0.0297899 -0.018979006
0000f0 74 83 e9 39 64 16 72 3c b7 2c b9 ba d1 fd 88 3d
       0.00044539163 0.014775846 -0.0014127706 0.06689037
000100 fc 39 5a 3d 02 3d 89 bc 90 0f 4c 3d 23 bc 37 3d
       0.053277954 -0.016752724 0.04981953 0.044857156
000110 94 67 22 bd 32 2f b6 3c af 7b fe 3c 06 f1 f0 bc
       -0.03964956 0.022239301 0.031064836 -0.029411804
000120 ec 27 42 3d 62 b7 04 3d bf b6 90 3b e1 14 56 3d
       0.047401354 0.03240145 0.0044163163 0.052266005
000130 25 6c 3b 3d 0d 7a d9 ba 60 c8 3c 3c de 4a 60 3c
       0.04575743 -0.001659216 0.0115223825 0.013689725
000140 c4 87 e5 3a 35 b3 9c bd 7d 3f 94 bd 3f 2c 07 be
       0.0017511775 -0.076513685 -0.07238672 -0.13200472
000150 ea 43 f1 bd f1 b7 b5 bd a2 f2 12 be 45 58 f8 bd
       -0.11780532 -0.08872975 -0.1435037 -0.12126211
000160 91 5e c0 bd fb 88 f8 bd 2c bf bc bb f8 cb cf bb
       -0.09393037 -0.12135502 -0.005760094 -0.0063414536
000170 01 1c bd 3b 9e 0d 77 bc e3 a7 2b 3c 71 84 01 3d
       0.0057711606 -0.01507893 0.010477039 0.031620447
000180 07 1a 57 bc 9f 0a f0 bb a2 53 35 3d 1e bd 25 3c
       -0.013128764 -0.007325485 0.04426921 0.01011589
000190 96 0f ca 3b 7c 57 fd 3b 1e 61 50 bc 76 0d 08 bc
       0.006166409 0.007731376 -0.012718467 -0.008303991
0001a0 65 10 ae 3b d5 bd 3b bd 9d 5b 39 bd da 7e c3 bc
       0.005312013 -0.045835335 -0.045253385 -0.023864198
0001b0 7e f7 1b bc e2 73 47 bd f3 23 3d bd a0 64 88 bc
       -0.009519456 -0.0486945 -0.046176862 -0.016649544
0001c0 3f c0 63 bd 6f ad 0a bd 85 00 44 bd d8 88 b3 bd
       -0.055603262 -0.033856805 -0.047852058 -0.08766335
0001d0 a9 f4 a2 bd 1f dc 19 3e 01 0a 11 3e 4b 27 69 3e
       -0.079568215 0.15025376 0.14163972 0.22768895
0001e0 d1 79 4b 3e 79 ee 49 3e c9 52 9c 3e ad 37 1b 3e
       0.19870688 0.19719876 0.3053191 0.15157957
0001f0 6e 52 1a 3e b8 77 81 3e 9e a7 ce bd 7e 89 d5 bd
       0.15070507 0.2528665 -0.10090564 -0.10426615
000200 f5 6a 25 be 6e b2 6b bd 24 74 73 bd 84 6e c8 bd
       -0.16154082 -0.05754321 -0.059436932 -0.09786704
000210 17 99 c5 bd ea e7 e1 bd 1a 73 16 be 20 c7 48 35
       -0.0964834 -0.11030562 -0.14692345 7.479557e-07
000220 b3 46 4a 35 be 3f 4a 35 17 fb 4b 35 68 83 4d 35
       7.5353745e-07 7.534362e-07 7.5988777e-07 7.655967e-07
000230 12 82 4d 35 9d fe 4a 35 52 85 4c 35 b6 83 4c 35
       7.655773e-07 7.5621375e-07 7.618993e-07 7.6187587e-07
000240 e1 bf 3f 35 28 5c 41 35 3a 22 41 35 fa e8 42 35
       7.1432265e-07 7.203221e-07 7.194791e-07 7.260966e-07
000250 56 8c 44 35 ac 61 44 35 44 db 41 35 eb 7a 43 35
       7.3219906e-07 7.315782e-07 7.2217176e-07 7.282203e-07
000260 64 43 43 35 45 57 4d 35 e8 b0 4e 35 31 76 4e 35
       7.2741227e-07 7.6495445e-07 7.699841e-07 7.691297e-07
000270 0c 0f 50 35 0e 7a 51 35 65 4f 51 35 77 10 4f 35
       7.7507934e-07 7.803618e-07 7.79741e-07 7.713747e-07
000280 ed 69 50 35 ae 38 50 35 2b 95 2a 38 79 72 2b 38
       7.764018e-07 7.756852e-07 4.0670082e-05 4.0876188e-05
000290 91 43 2b 38 44 37 2c 38 a6 05 2d 38 5f d0 2c 38
       4.0832503e-05 4.1059466e-05 4.1251675e-05 4.1202056e-05
0002a0 82 a8 27 38 4f 77 28 38 3e 3c 28 38 ad 4c f6 37
       3.9972838e-05 4.0165436e-05 4.0110426e-05 2.936119e-05
0002b0 5d 0c f8 37 9f d2 f6 37 bb 59 f9 37 0f f4 fa 37
       2.9569661e-05 2.9423563e-05 2.9724897e-05 2.9915971e-05
0002c0 6d ba f9 37 68 a0 ee 37 5b 4f f0 37 39 00 ef 37
       2.9769924e-05 2.8446506e-05 2.8647182e-05 2.8491124e-05
0002d0 29 ef 64 38 ab bf 65 38 22 58 65 38 d6 77 66 38
       5.458217e-05 5.477636e-05 5.4679935e-05 5.494788e-05
0002e0 d3 2a 67 38 dc c0 66 38 40 34 61 38 44 ed 61 38
       5.5114575e-05 5.5015887e-05 5.3692842e-05 5.386515e-05
0002f0 ac 79 61 38 da 45 97 bd 85 d6 96 bd f1 f2 92 bc
       5.3757496e-05 -0.0738637 -0.07365135 -0.01793811
000300 64 6b d5 bd dd fc ac bd ba 30 ee 3c e7 c9 5f bd
       -0.10420874 -0.08446667 0.029075969 -0.05463591
000310 84 ff ee bc 18 55 d0 3d 8d a0 96 bd e8 1f 4e bd
       -0.029174574 0.1017248 -0.073548414 -0.050323397
000320 90 c0 bb bb d7 72 e8 bd dc 71 b9 bd c4 5e ff 3b
       -0.0057297423 -0.11350029 -0.0905492 0.0077932794
000330 cd af 5d bd 55 5d f4 bc e5 94 a7 3d 15 c8 56 bd
       -0.054122735 -0.02982966 0.08182696 -0.052436907
000340 a7 ba 43 bd 3a 6f 6b bc 0f a8 8e bd e1 fd 5a bd
       -0.047785427 -0.01436978 -0.069656484 -0.053464774
000350 66 ed 1e 3c 89 c2 0c bd e8 dc a4 bb aa e7 8a 3d
       0.009700155 -0.03436521 -0.005031217 0.06782468
000360 12 cf 7c 3d d0 66 93 bc 05 c1 77 bd 06 e9 d9 3c
       0.061720915 -0.01799336 -0.060486812 0.026600372
000370 7b cf 26 bd e7 1a 98 bd 61 0f 4b 3d 65 a2 1c 3c
       -0.040725213 -0.07427006 0.049575213 0.009560202
000380 e2 d2 88 bb fe e1 25 3d 06 f9 2d bd 14 12 90 bd
       -0.00417553 0.040498726 -0.042473815 -0.07034698
000390 93 64 56 3c 44 c0 6c bd 65 a5 ad bd 49 8d 5a 3d
       0.013085502 -0.057800546 -0.08478812 0.053357396
0003a0 0c a9 06 ba 46 5d 3c bb 8c c6 31 3d 45 d0 14 bd
       -0.0005136884 -0.0028742119 0.04340224 -0.036331434
0003b0 42 ee 93 bd 24 db 2f 3c a4 17 86 bd d1 f4 c4 bd
       -0.072231784 0.0107334 -0.06547478 -0.096170075
0003c0 ea d4 45 3d 9d d0 a8 bb 81 31 e7 bc 9d bf cc 3d
       0.048298754 -0.0051518218 -0.028221847 0.09997485
0003d0 ae e7 12 bc aa 59 fb bd c1 92 d0 3d 4e 22 66 bc
       -0.00896637 -0.122729614 0.10184241 -0.014046265
0003e0 aa 7f 1a be e1 90 51 bc 7f 7f d7 ba 2e 24 02 bd
       -0.15087762 -0.0127908895 -0.0016441195 -0.031772785
0003f0 f0 95 64 3d 75 d1 93 bd 6b 0d 0d be 25 b3 db 3d
       0.055807054 -0.07217685 -0.1377465 0.107275285

encoder.level1.bn.weight f4 [16]
000000 82 7f 68 3f a7 ba 80 3f e2 17 8c 3f 06 25 36 3f
       0.9081956 1.0056962 1.0944788 0.71150243
000010 d7 db 6d 3f 17 e1 35 3b c8 fa 4b 3c 5a 50 8a 3f
       0.92913574 0.0027752572 0.012449928 1.0805771
000020 ec e8 37 3f 11 9a 93 3f 06 ea d7 3d 79 3f 0f 3f
       0.71839786 1.1531392 0.10542683 0.55956227
000030 3e fc 8b 3d 50 26 4b 3f 3b 6f c4 3f 0a 47 72 3d
       0.06835221 0.79355335 1.5346445 0.05914978

encoder.level1.bn.bias f4 [16]
000000 c1 2b 01 3f 1e e6 66 3f dc 13 e2 be 43 90 ba bf
       0.5045739 0.9019488 -0.44155777 -1.4575275
000010 38 23 36 3e 4b 13 66 b9 ff da 16 3a b8 4d 65 3d
       0.17786872 -0.00021941696 0.0005754679 0.05598232
000020 dc 5f 91 3f 4c 73 cf bc 6f 46 96 3b de 90 9e 3f
       1.1357379 -0.025323533 0.004586033 1.238796
000030 ac 75 87 bb e4 c5 c0 3d c3 1f 32 bf d2 18 a3 bb
       -0.0041339006 0.09412745 -0.69579715 -0.004977324

encoder.level1.bn.running_mean f4 [16]
000000 e0 d0 1f 3f a6 31 41 bf f7 9a 00 bf 82 ac 93 3f
       0.6242809 -0.7546638 -0.5023646 1.153702
000010 81 67 b8 be 1e 37 a4 b7 89 1c 8c ba 5c 55 51 3f
       -0.36016467 -1.957599e-05 -0.0010689656 0.81770873
000020 21 25 ba 3e 44 96 9f 3e db ac f7 ba ed 60 8e 3e
       0.36356452 0.3116933 -0.001889612 0.27808324
000030 5c 51 d2 36 71 ed 21 be 49 c2 8c 3f 72 2f 24 bc
       6.267959e-06 -0.15813233 1.0996791 -0.0100210775

encoder.level1.bn.running_var f4 [16]
000000 5d fb 1f 3e eb 1d dd 3e d2 ed 4d 3e b4 d5 33 3f
       0.15623231 0.43186888 0.20110252 0.7024796
000010 2a 34 6b 3e d1 42 9f 2f 63 b0 69 35 74 52 00 3f
       0.22969118 2.8969407e-10 8.705594e-07 0.50125813
000020 96 f7 f3 3d a1 89 98 3d 1b 52 27 36 2e ab 17 3e
       0.11912458 0.07448126 2.493273e-06 0.14811394
000030 e9 04 03 2e d3 a5 49 3e 28 f0 68 3f fd fa 99 38
       2.9790313e-11 0.19692163 0.9099145 7.342359e-05

encoder.level1.act.weight f4 [16]
000000 c4 ee f1 3e 53 5f b6 be 45 7b 86 bf 7f 25 4f 3f
       0.47252476 -0.35619602 -1.0506369 0.8091659
000010 31 c7 88 3f 8a 6a 2d 3d 0a dd 28 3d da b1 42 3f
       1.0685788 0.04233793 0.041226424 0.7605263
000020 6e c4 3b 3d 5a e4 f8 be 9c d9 34 3d 78 25 ae 3e
       0.045841627 -0.48611718 0.04415284 0.3401296
000030 a2 87 20 3d 57 88 c6 3f 2b 5c 10 3f ce 20 2b 3d
       0.03919185 1.5510358 0.5639064 0.041779332

encoder.level2_0.conv.0.weight f4 [16, 1, 3, 3]
000000 d5 c7 57 3e 12 50 0c 3e 3b 09 5e 3c e7 97 da 3e
       0.21072324 0.1370242 0.013552005 0.42694017
000010 fd 34 c3 be b5 5c 93 bf 9f b4 ed 3e ce 0d 44 bf
       -0.38126364 -1.1512667 0.46426865 -0.76583564
000020 59 30 e1 bf 8c 18 f1 be 0f d2 da bd 0c ea 6f be
       -1.759288 -0.4708904 -0.10684597 -0.23429126
000030 26 a9 b7 be bd f6 39 be 89 13 4c bd 99 55 f0 be
       -0.35871238 -0.1816053 -0.049823318 -0.46940306
000040 c9 0f 65 3f 46 97 d5 3f 97 c5 ae be a5 e8 3b 3d
       0.8947721 1.668679 -0.34135124 0.045876164
000050 98 58 5b be 45 82 46 be bc e6 1d 3f 54 29 7c 3f
       -0.21420515 -0.19385631 0.616802 0.9850056
000060 35 0a 26 bf 0c 1e 31 3f 63 b0 ac 3f ac 18 8d 3d
       -0.64859325 0.6918647 1.3491329 0.068894714
000070 ed 18 f9 3d 86 8e 42 3f df 1c 83 be 0b 12 9e 3e
       0.12162957 0.75998724 -0.25607964 0.3087314
000080 5b 2f eb 3f 1c 6b aa be 4d 99 b8 3e e8 aa d9 3f
       1.8373827 -0.33284843 0.3605446 1.7005281
000090 3d 40 34 3e df 5d 2a 3e ca b1 19 3e 56 42 96 3e
       0.1760263 0.16637371 0.15009227 0.29347485
0000a0 4e f0 85 be 49 5c 8f bf 65 3d ab 3e 8b dc 05 bf
       -0.261599 -1.1200038 0.33445278 -0.52289647
0000b0 b0 bb eb bf c1 36 12 bd ee c7 55 3d 51 d6 3a 3d
       -1.8416653 -0.03569675 0.05219262 0.045614544
0000c0 ae 54 7e 3d 8b c6 4f bd c9 a3 87 3d 5e 61 8f bd
       0.062092476 -0.050726455 0.066230364 -0.07000993
0000d0 cc b1 8e bd a5 3a 56 3d 5c 9d 3f bc 63 f6 33 3d
       -0.06967506 0.05230202 -0.011695232 0.043936145
0000e0 63 c3 83 3c b6 be 87 bc b5 eb 52 bb a8 1f 81 bd
       0.016084379 -0.01657043 -0.003218395 -0.06304866
0000f0 41 6e 87 bd be ea e0 3c b1 0a c8 bd a1 21 13 bf
       -0.06612826 0.027455684 -0.09767664 -0.5747319
000100 03 d9 a5 3e f0 2f de 3f 80 ee 96 bf f8 5c 20 3e
       0.3239213 1.7358379 -1.1791534 0.15660465
000110 43 28 d8 3f 19 3a 62 bf fc eb 79 be d1 61 58 3f
       1.6887287 -0.883699 -0.24406427 0.84524256
000120 a3 ae cc 3e 6a 45 58 3f 70 14 58 3f 25 fd cd 3e
       0.39976987 0.8448092 0.84406185 0.40232196
000130 1d dd 7e 3f ab e0 9e 3f 0a f8 95 3e db 07 04 3f
       0.9955614 1.2412313 0.292908 0.51574486
000140 b9 7d ad 3e 5a fe cd 3e b0 54 b3 3e e9 89 93 3e
       0.3388498 0.40233117 0.3502555 0.28816155
000150 d8 fd 22 be 27 dc d0 be a7 c2 3e bf fc 88 91 be
       -0.15917146 -0.40792963 -0.74515766 -0.28424823
000160 fb 2e 43 bf a2 8a 73 bf 9a 2e b3 3c 07 02 52 bd
       -0.7624356 -0.9513341 0.021872807 -0.051271465
000170 42 6f 91 3d 1c 49 51 3d d1 7a 64 bb 0a 10 05 3c
       0.07101299 0.051095113 -0.0034863243 0.0081215
000180 e6 47 03 bd cf 20 52 bb 98 d8 7c 3c 65 86 83 be
       -0.03205099 -0.0032063012 0.015432499 -0.25688472
000190 17 66 a3 3d 4c 0c c1 3e 3d d1 78 be c4 80 ef 3e
       0.079784565 0.37704694 -0.24298568 0.46777928
0001a0 3e ff 99 3f dd e9 be be 45 53 17 3f fb 9d b5 3f
       1.2031019 -0.372878 0.59111434 1.4188837
0001b0 1c 83 8d bd f0 b2 56 bd c1 88 7b bd cb 3d 94 3d
       -0.06909773 -0.05241674 -0.061409716 0.072383486
0001c0 c9 e7 26 3d cd 96 0c 3d 87 b5 16 3c 15 93 28 3d
       0.04074839 0.034323502 0.009198553 0.041155893
0001d0 9d 31 9e bc 66 bc 3e be b9 83 64 bd 27 42 8c 3e
       -0.019310767 -0.18626556 -0.055789683 0.2739422
0001e0 55 c7 9a be fd 80 a3 3e dc 4d 87 3f 1b 92 89 be
       -0.30230203 0.31934348 1.0570636 -0.26869282
0001f0 12 e3 ef 3e b3 fc a1 3f 53 75 e6 be 51 04 aa bd
       0.46852928 1.2655243 -0.45011386 -0.083016045
000200 f9 28 e3 bf 97 a9 51 bf f9 f4 82 3f df bb 9f 3f
       -1.7746879 -0.818994 1.023101 1.2479209
000210 af c3 9c bf d1 ae c1 3f 77 8e d8 3f c0 1c cf bd
       -1.2247218 1.5131475 1.6918477 -0.101129055
000220 76 5f 3f bd 2d eb 55 bd cd 18 62 bd 3f e8 97 3c
       -0.046721898 -0.052226234 -0.055199433 0.01854336
000230 eb 10 a3 bc 87 f8 27 bc 64 2c d3 3c a7 69 c3 bd
       -0.019905528 -0.010252125 0.025778003 -0.09541636

encoder.level2_0.conv.1.dense.0.weight f4 [16, 16]
000000 92 bd 57 be 96 99 62 be 9d 51 b1 bd 7e 4e 4c 3f
       -0.21068409 -0.22128901 -0.086581446 0.7980727
000010 c8 d9 33 bf fd b6 1f 3d 20 1b ea 3b b0 44 a2 be
       -0.7025418 0.03899287 0.007144347 -0.3169303
000020 46 ae 35 bf 02 a3 63 3e f6 2f 54 bc 81 89 f5 be
       -0.70969045 0.22230151 -0.012950888 -0.4795647
000030 22 86 37 bc 40 7b 7b bd 9c 9e 19 be 57 f8 9a bc
       -0.011201413 -0.061396837 -0.15001911 -0.018917246
000040 5d 41 7c be 8b 43 64 be b5 fd d7 3d e5 5b 5d bf
       -0.24634309 -0.2229139 0.10546438 -0.86468345
000050 24 9c b8 3d 3a ce 15 bd a0 c7 00 bd 6e 49 81 3d
       0.090141565 -0.036573626 -0.031440377 0.06312834
000060 87 24 44 3f ed 5d 0b 3c 64 45 dd 3b 04 44 9f 3e
       0.76618236 0.00850628 0.006752657 0.3110658
000070 51 03 0c 3c ed d2 05 be 85 f4 49 3b 2b a0 7c bc
       0.008545713 -0.13068743 0.003081591 -0.015419046
000080 f6 59 5a 3e 6e 2b 9a be 01 30 18 3d 4e 48 31 3f
       0.2132338 -0.3011126 0.037155155 0.69250953
000090 dc 07 05 3e f7 b1 be bc 9c a5 1e bc 48 75 62 3c
       0.1299128 -0.02327822 -0.009683039 0.013821907
0000a0 8f d3 ad be 00 1b c4 bd 1d 45 33 bd d7 8c 64 bc
       -0.3395047 -0.09575462 -0.043767083 -0.013949594
0000b0 ea 87 12 3d 9a 50 03 3e 4a 27 16 3e ae 5f 06 3d
       0.03577415 0.12823716 0.14663425 0.03280609
0000c0 e2 db 8f be 00 ba 17 3e af 9d fc 3d 79 8e 27 bf
       -0.28097445 0.14817047 0.12334763 -0.6545177
0000d0 cc d5 ab bc b9 fd 7b bc cb 90 a8 bb 41 7d 99 3e
       -0.02097597 -0.015380316 -0.005144214 0.29978374
0000e0 4f d2 62 3f 40 ce 5d be 9b f3 41 3b 24 e7 f2 3e
       0.88602155 -0.2166071 0.0029594663 0.4744197
0000f0 34 91 fb 3c c3 43 16 be bf 15 ce 3d 7c 49 8b 3b
       0.030708887 -0.14674287 0.100627415 0.0042507034
000100 05 ce e4 be 51 fd 0e be 6b 6d 2e 3d 65 e3 7f 3f
       -0.4468843 -0.1396382 0.042584818 0.9995635
000110 8f 59 36 bf 5a 0b 27 bd e7 15 0d 3d 4c 89 a4 be
       -0.71230406 -0.04078231 0.034444716 -0.32136
000120 88 c7 24 bf 3f 10 03 bd e7 1e cb bc fe 64 e4 be
       -0.6436696 -0.031997915 -0.024795009 -0.446083
000130 b9 6f 93 3b cf 8e 54 3d e6 e1 0a be 0e f7 2e 3c
       0.0044994024 0.051894005 -0.13562736 0.01067902
000140 e1 54 db bc 06 5d 01 3d 1b 6f 80 bc 42 b8 aa bc
       -0.026773872 0.031582855 -0.01567798 -0.020839814
000150 d4 b7 73 bc fa 36 0d bd 01 6a 03 3d 21 86 04 bd
       -0.014875371 -0.034476258 0.032083515 -0.032354478
000160 e5 8e 98 3c 43 5a 4a 3b 9d af 2c bc 01 5a a1 bc
       0.018622825 0.0030876554 -0.010539916 -0.019696238
000170 7b ce 78 3a ff 24 2d 3d 47 ed 66 3b 3f 3a fb 3c
       0.0009491217 0.04227161 0.0035236643 0.030667422
000180 0d 9b ec bc e9 7b 28 bc a8 22 28 bd 7f 0b e2 bc
       -0.028882528 -0.010283449 -0.041048676 -0.027593372
000190 54 4e 86 3c ee d5 2c 3d dd 88 ca 3c 5c e3 9e 3c
       0.016394772 0.042196207 0.024723465 0.019395523
0001a0 64 9d 2e 3c b2 2c 0b bb 87 cd 01 3d dc af 2a bc
       0.010657642 -0.0021236357 0.031690147 -0.010417905
0001b0 2f fb 98 3c bd 2c af bc 87 3d 03 bd ab 72 2e bd
       0.018674461 -0.021383638 -0.0320411 -0.042589825
0001c0 47 d1 27 be bf 64 70 3d c5 ec 65 be c4 ef 69 bf
       -0.16388427 0.05868983 -0.22453602 -0.9138148
0001d0 fa a7 16 3e a7 18 62 bc d4 49 98 3c 29 18 49 3e
       0.14712515 -0.013799823 0.018589891 0.19638123
0001e0 a3 47 f6 3e 8a 00 52 3e 3e 8c c8 ba 5c 78 a6 3e
       0.4810153 0.20508018 -0.0015300584 0.32513702
0001f0 b6 de 41 3c 66 ea b0 bd 0d e8 ed bc 4d 42 17 bc
       0.011832884 -0.08638458 -0.029041314 -0.009232116
000200 d9 74 5e 3d b4 17 e9 bd 44 11 5b 3e 49 33 31 3f
       0.054310653 -0.11381474 0.21393305 0.6921888
000210 8e 23 ee bd 60 cf ab bc 4e 68 3e bc 24 8b b0 bd
       -0.11627875 -0.020972908 -0.011621548 -0.08620289
000220 e7 c5 51 be 5d 31 ef bb fe af 9d 3c c3 8d 03 bf
       -0.2048565 -0.0072995857 0.019248959 -0.51388186
000230 28 f7 3f bc b1 da ac bd 0e a1 61 bd 2d d6 f4 bc
       -0.0117166415 -0.084401496 -0.055085234 -0.029887283
000240 8c 72 c2 be e4 3e 76 3e bc 41 47 3e 0d d9 05 bf
       -0.37978017 0.24047428 0.1945867 -0.5228432
000250 32 1e 9b 3c eb 98 1c bd 63 82 f4 bc bc e8 e2 3d
       0.018935297 -0.03823177 -0.02984733 0.11079547
000260 f1 10 0b 3f 16 4f 75 3c 79 76 d4 bc 5c d9 fb bb
       0.54322726 0.014972469 -0.025935398 -0.0076858234
000270 08 b0 19 bc 18 27 26 be e8 07 81 3b c5 0f 56 3c
       -0.009380348 -0.1622585 0.00393771 0.013065283
000280 e1 32 0f bd 5d fb c3 3c 9c e1 33 bd 41 1a c7 bc
       -0.03496063 0.02392357 -0.04391633 -0.024304511
000290 00 d6 91 3c c2 d2 87 bb e0 26 2c bd d4 2d 71 bb
       0.017802238 -0.0041449973 -0.04202926 -0.0036800997
0002a0 ff 02 8d 3c c1 51 9d 3b c0 ca f7 bc be c5 96 3c
       0.017213343 0.0048010056 -0.030248046 0.018404838
0002b0 4d 3e 11 3d e8 1c a3 3c 3c 5d a3 bc d9 0b 0f 3d
       0.035459805 0.019911245 -0.019941919 0.03492341
0002c0 97 80 d3 3e 40 60 f1 be 82 45 e0 be e2 37 80 3f
       0.41309044 -0.47143745 -0.4380303 1.0017054
0002d0 1b c4 09 3e 5f c3 03 bc 1e e5 1e 3d 09 16 83 bd
       0.13453715 -0.008042186 0.038792722 -0.06400687
0002e0 38 14 4b bf 66 46 26 be f5 c8 b1 bc 6d 78 ae 3e
       -0.79327726 -0.16237792 -0.02170227 0.34076253
0002f0 b6 c5 dd bc 03 e1 cf 3e 0d d3 37 3e 1e e7 9d 3b
       -0.027071815 0.40601358 0.17951603 0.004818811
000300 bf 78 82 bc 93 ed eb bc 22 8c 12 bc 7e c1 23 3d
       -0.015926717 -0.028799808 -0.008944543 0.03997945
000310 80 4c dd bc 93 a2 1c bd 12 8f 0d 3d 23 e0 28 3d
       -0.027014017 -0.03824098 0.03456027 0.04122938
000320 2d f9 34 3c 0d 6c 3e bc ab 27 1b bd 1b 53 31 3c
       0.011045736 -0.011622441 -0.037879627 0.010823037
000330 f0 87 78 3c e4 50 fe b9 84 9b b6 bc 6f 0f 04 ba
       0.015169129 -0.00048506923 -0.022290953 -0.00050377
000340 a3 8d 01 be 35 c0 24 3e f2 aa 22 bd 87 7a 8f bf
       -0.12651686 0.16088946 -0.039713807 -1.1209267
000350 a5 4d db bd 4e 9f d2 bb 91 b2 86 3c b8 83 8b 3d
       -0.10708169 -0.006427682 0.016442569 0.06812233
000360 ce 99 0f 3e bf 09 09 3c db 0b 0e 3c b8 c2 0b be
       0.14023516 0.00836414 0.008669819 -0.13648498
000370 a8 a9 d5 3a 69 73 b2 be 1a 37 3b bb cf af 02 bd
       0.0016301172 -0.34853676 -0.0028566779 -0.031905945
000380 de de 4a be e5 e7 94 3e d2 aa 37 bc 6c c7 8c bf
       -0.1981158 0.2908317 -0.01121016 -1.0998359
000390 97 47 89 3e c8 81 98 3a f7 03 f7 3c 39 33 63 3e
       0.2681243 0.0011635358 0.030153258 0.22187509
0003a0 0a 08 3d 3f 47 81 47 bd c0 a8 55 bc 2f 8d 07 3f
       0.7384039 -0.048707273 -0.013040721 0.52949804
0003b0 cc e9 78 3c 32 e1 af 3c d2 9d 55 3d 78 4d 9f 3c
       0.01519246 0.021469686 0.052152462 0.01944612
0003c0 88 b2 33 3d 41 1d bd bc 62 50 90 bc 93 dc 35 bc
       0.043871433 -0.023085238 -0.017616455 -0.011099952
0003d0 af f5 05 bd 63 17 e5 bc d8 ee ef 3b d1 01 b1 3c
       -0.032705005 -0.027965253 0.0073221736 0.021607311
0003e0 d1 ff 80 3b 6a a1 05 3a c8 f9 34 bc fd ca 97 bc
       0.0039367457 0.00050976 -0.011045881 -0.01852941
0003f0 66 2f cc ba 0f 36 9a bc 24 84 bd bb af ad c7 bc
       -0.0015578091 -0.018824605 -0.0057835747 -0.024374811

encoder.level2_0.conv.1.dense.0.bias f4 [16]
000000 8d 26 0b bf 86 77 7e 3e 84 a6 f5 bd 37 88 ac 3d
       -0.543557 0.24850282 -0.11994651 0.084244184
000010 e2 4c a6 be 07 55 e6 bc cb f3 26 3c 42 3d 8d 3e
       -0.32480532 -0.028116716 0.010189961 0.27585799
000020 1a 4a db bd ff ea 0c 3e 24 64 49 bd 0f 8c b6 be
       -0.10707493 0.13761519 -0.049167767 -0.3565373
000030 ee 1b 36 bd 01 45 6a 3e 3f 1d e4 3e 9c e6 9e bc
       -0.04446023 0.22877885 0.44553563 -0.019397072

encoder.level2_0.conv.1.dense.1.weight f4 [16]
000000 5e 35 60 3f 44 6a 2f 3d 78 f8 50 3f cd e2 0e 3e
       0.8758143 0.042825952 0.81629133 0.13953705
000010 69 f5 70 3f bb 4e 2e 3d 17 70 2f 3d 7e e5 2c 3d
       0.94124466 0.042555552 0.042831507 0.04221105
000020 21 83 21 3f 40 15 32 3d 6a 56 45 3d c3 81 64 3f
       0.6309071 0.043477297 0.048178114 0.892605
000030 4e 6d 33 3d 6d 63 2f 3d 44 6a 2f 3d 62 ea 5a 3d
       0.043805413 0.04281943 0.042825952 0.05344618

encoder.level2_0.conv.2.weight f4 [19, 16, 1, 1]
000000 15 24 b7 be a5 4d 1a 3d 4d c0 f4 3c b6 6f 43 bd
       -0.35769716 0.037671704 0.029876852 -0.047713958
000010 19 92 92 be f1 8c aa 2f 06 d1 4a 33 32 09 8f 3c
       -0.2862709 3.1022965e-10 4.7221896e-08 0.01746044
000020 55 c8 53 3d 78 fc eb bc 10 ad 59 b6 d6 4e 0c be
       0.051704723 -0.02880691 -3.2436255e-06 -0.13701949
000030 54 11 81 af 5c 3e 0b 3d 26 81 c9 bd 8b 8e 47 b5
       -2.3477276e-10 0.033995017 -0.09839086 -7.4340704e-07
000040 6f 55 2a 3d 96 14 1f bd 6d 75 5e bd 8f ca 7b 3e
       0.041585382 -0.03883799 -0.054311205 0.24588989
000050 c5 89 64 bd dd c6 e6 30 32 2c b5 b2 57 e4 06 bd
       -0.05579545 1.6791223e-09 -2.1091271e-08 -0.032932606
000060 c4 52 1e bb fb aa 19 bd 09 51 93 b5 42 86 f4 bd
       -0.002415822 -0.037516575 -1.0975938e-06 -0.1193967
000070 55 31 11 31 60 f6 e9 3d 4d 0d 72 3c 6f 21 ec 33
       2.112832e-09 0.114239454 0.014773679 1.0995688e-07
000080 81 07 52 be 49 11 57 bd 9f fd 16 3c 7b 88 34 bd
       -0.20510675 -0.05250672 0.009215741 -0.04407547
000090 53 75 d5 be 47 da a6 af 86 33 3d 34 c5 ee 6d 39
       -0.41691074 -3.035032e-10 1.7620741e-07 0.0002269103
0000a0 8e d4 04 3c bc 4d e7 3d 6c bf cd b6 3e b6 49 3d
       0.008107318 0.112941235 -6.1317605e-06 0.049246065
0000b0 8e 9e f9 af 29 d9 83 bd dc de 27 bd ae 4b b9 b5
       -4.5405496e-10 -0.064379044 -0.04098402 -1.38056e-06
0000c0 87 c7 37 3d f5 95 65 3d 21 4d 63 be e1 9f 22 3d
       0.04486802 0.056051213 -0.22197391 0.039703254
0000d0 c6 41 01 3e ce e1 8f ae a2 ad 0d b4 5c c9 72 3d
       0.12622747 -6.542998e-11 -1.3194816e-07 0.059274063
0000e0 43 c8 f8 bd 41 8b b4 bd be 45 f7 35 10 aa 97 bd
       -0.12147572 -0.08815623 1.8423232e-06 -0.07405484
0000f0 50 ef 38 30 7b 23 2f bb 99 67 0f 3e 6f 12 8c 35
       6.7278894e-10 -0.002672403 0.14004363 1.0436178e-06
000100 d5 b3 07 3e e1 4f a8 bd c8 c3 5c 3d 31 b2 52 bd
       0.13252194 -0.08218361 0.05389765 -0.051439468
000110 2a b6 0f 3e 0d fe 0b 30 ed 9b e6 b1 4c 1c 81 bc
       0.14034334 5.0928933e-10 -6.7116077e-09 -0.015760563
000120 b1 12 a9 3d 62 dd 36 3e 38 bd e2 af 9f a0 da b9
       0.08255518 0.17857888 -4.1243609e-10 -0.00041699872
000130 60 8d e1 af 55 a7 9b 3c 57 40 d0 3d 17 97 5c 33
       -4.1027715e-10 0.019000689 0.10168522 5.1360157e-08
000140 f4 ae 13 bd 21 e3 5f bd 54 f8 37 3e cc 69 97 3e
       -0.03605552 -0.054659966 0.17965823 0.29572904
000150 18 77 f3 bd 30 bc 49 30 bd fb 09 34 50 2c 7e bb
       -0.1188795 7.3390805e-10 1.2850701e-07 -0.0038783737
000160 72 15 46 3d a8 e7 44 3d 9b 8d 5f b6 57 9d 94 be
       0.048360296 0.048072487 -3.3312015e-06 -0.2902629
000170 d5 2f b1 30 b0 3c d2 3d 15 34 0e 3d 6a b1 08 35
       1.289204e-09 0.102654815 0.034717638 5.092212e-07
000180 45 b8 87 3d 3f 04 c9 bb aa 8b 54 bd d4 dd e2 3c
       0.066269435 -0.0061345394 -0.051891007 0.027693667
000190 25 9b 17 3b 1b 82 60 2e 15 54 30 b3 c3 fc 0a 3d
       0.0023133245 5.104726e-11 -4.1054665e-08 0.03393246
0001a0 25 41 b2 3d c4 3b d4 bb f1 a2 01 35 c9 61 21 bd
       0.087038316 -0.006476851 4.8293356e-07 -0.039399896
0001b0 c5 58 09 ae da 12 03 3d a1 53 c7 bb 61 a0 e2 32
       -3.1229037e-11 0.0320004 -0.0060829674 2.6382795e-08
0001c0 40 4c 70 be 53 ae 25 be 67 c3 d4 3c 7e d0 d0 3b
       -0.23466587 -0.1617978 0.025972081 0.0063725105
0001d0 da 05 90 be 12 7f ab ac e3 89 b0 b3 80 b6 e1 bd
       -0.28129464 -4.87422e-12 -8.22072e-08 -0.11021137
0001e0 34 e1 b0 3d 7b 16 e8 3b 87 bd 27 b6 dc ca 8f bb
       0.08636704 0.007082758 -2.4995259e-06 -0.0043881964
0001f0 ed 94 91 30 7a 7e ca 3b 24 74 28 3e 98 92 63 b5
       1.0592466e-09 0.006179628 0.16450554 -8.477741e-07
000200 2a d2 1e 3e c5 0f f5 3c 87 00 a6 b9 eb d9 eb bd
       0.15509859 0.029914746 -0.0003166238 -0.11516174
000210 a8 53 3b 3e 27 bf f0 2f ea 95 88 b4 76 49 c6 bd
       0.18293631 4.3791568e-10 -2.544105e-07 -0.0968198
000220 23 7a 71 bc 19 d5 dc bd 6c f3 c1 35 e3 f5 3c 3e
       -0.014738592 -0.10782833 1.4450466e-06 0.18453173
000230 05 42 aa 2e 2f f7 a9 bd 2a 97 01 3d fd 12 37 34
       7.7424324e-11 -0.082991 0.031638302 1.7050111e-07
000240 5d de 11 be ad e6 63 bc 1d 3e db 3d 6f e5 cc bd
       -0.14244981 -0.013909978 0.107052065 -0.100046985
000250 0d 63 36 be 20 8f ae 30 ae 1a 29 b4 6a 65 b3 bc
       -0.17811222 1.2700845e-09 -1.5749058e-07 -0.021898944
000260 16 77 c7 3d af 95 08 3e 44 c8 8d 33 eb 4d 4a 3e
       0.09739511 0.1333835 6.602252e-08 0.19756286
000270 75 c5 34 2f ba 35 1f be 84 b9 ba bd c1 8e 1d b5
       1.6441055e-10 -0.15547839 -0.091174155 -5.869479e-07
000280 e1 be b7 3c b2 68 9b 3c 0c c9 c0 bd 37 4a 65 3e
       0.022429885 0.018970821 -0.09413347 0.22391592
000290 9c 4e 0f 3d 19 ea 03 30 67 f4 20 31 18 96 16 bd
       0.034987077 4.7990195e-10 2.342199e-09 -0.036764234
0002a0 59 6a f4 bd 1c 82 d3 bd bd 80 eb b3 dc 35 a8 bd
       -0.11934347 -0.10327551 -1.09664576e-07 -0.08213398
0002b0 cf 03 1f 30 d0 85 9c 3d 5e 08 48 3d 98 16 14 35
       5.7849275e-10 0.0764271 0.048836105 5.5167175e-07
0002c0 33 9f 85 3e 0a 0f 2d bc ad 3f 57 bd 84 cc dc 3d
       0.26098022 -0.010562668 -0.05255096 0.10781196
0002d0 77 24 30 3e 01 64 98 2f cc 74 d9 b2 b1 13 88 bd
       0.1720141 2.7719696e-10 -2.5315238e-08 -0.06644381
0002e0 f7 f6 ce 3c 51 07 25 be 1d b8 a9 35 b1 8d f5 3c
       0.025264246 -0.16116072 1.2645065e-06 0.02997479
0002f0 a2 ad b0 2f 34 4c 6d bd 4a 15 c4 3d 7a 5c 9b 34
       3.2137587e-10 -0.057934 0.09574373 2.8938285e-07
000300 d9 b4 cc bc 8b 5a 02 bd cf 12 a6 bd 59 59 80 3c
       -0.024988579 -0.03182463 -0.08109056 0.015667604
000310 1b 94 a1 bd 68 41 96 2e 1c 2f 26 34 43 e5 46 bd
       -0.07889577 6.832829e-11 1.5477093e-07 -0.048558485
000320 a8 bc 8f 3d ad 52 67 bd df 61 2f 35 2c 18 03 3e
       0.07018405 -0.05647533 6.5335e-07 0.1280219
000330 73 64 5d ae fb 54 0b 3d b9 df a6 3c 35 74 f8 b2
       -5.03388e-11 0.03401659 0.020370351 -2.8923845e-08
000340 0b 36 a0 bc 13 51 c7 3d 45 1f d4 bd fa 84 cf 3e
       -0.01955702 0.097322606 -0.10357527 0.4053114
000350 76 59 45 bd fe 5b 07 30 28 08 8c b3 ca 96 3d 3e
       -0.04818102 4.924344e-10 -6.5207416e-08 0.18514553
000360 41 08 92 be 47 5f e8 bd 36 5f 3a b6 b3 07 47 3c
       -0.28521922 -0.11346298 -2.777158e-06 0.012147832
000370 49 23 c4 30 de a5 94 bd ce e1 d8 3c 63 1a 7b 35
       1.4270906e-09 -0.07258199 0.02647486 9.3543184e-07
000380 cb c7 45 3e c5 47 46 bc 8a 33 e4 bc f9 61 0c 3e
       0.19314496 -0.012102072 -0.027856607 0.13709249
000390 aa 8b 8e 3d f5 04 5f ad 24 6e dd 33 29 d2 71 bd
       0.069602326 -1.2677183e-11 1.0311149e-07 -0.059038315
0003a0 f7 fc 48 3b 78 2c ac 3d b4 0d 3b 36 6a 7e 9d 3d
       0.0030668357 0.08406919 2.7873148e-06 0.07690127
0003b0 60 9a 21 30 df 13 a2 bd bb 1e 11 3e c2 7a 9a 32
       5.879084e-10 -0.07913946 0.14171879 1.7983783e-08
0003c0 78 90 e2 3d c7 f8 06 3c 18 b2 34 be 22 e8 ea 3d
       0.110627115 0.008238024 -0.17646062 0.11470057
0003d0 6d fc ad 3d 83 ec 99 2f 51 bb 86 b3 b9 e4 c5 3c
       0.08495412 2.799859e-10 -6.273934e-08 0.024156915
0003e0 39 0d db bd 52 bf 9a bd e8 b3 67 36 cf 9a 21 3e
       -0.106958814 -0.07556023 3.4526402e-06 0.15781711
0003f0 9b 6d 0e 31 30 d5 cc bd 1b b6 fc 3c a9 58 4b 35
       2.0726023e-09 -0.100016 0.030848553 7.575241e-07

encoder.level2_0.bn.weight f4 [19]
000000 6b 06 f8 3e f7 a9 19 3f 4c f1 b5 3e 76 52 dd 3e
       0.48442397 0.6002497 0.35535657 0.43226975
000010 e0 7f ff 3d 24 46 fb 3e 68 aa 25 3f e9 0a 3d 3f
       0.12475562 0.4907695 0.64713144 0.7384477
000020 31 c7 6f 3f e6 15 d8 3e b0 38 31 3f 57 5d b5 3e
       0.93663317 0.42204207 0.69227123 0.35422775
000030 87 41 4a 3e 4c 58 c4 3e b1 a1 53 3f bc 1b 79 3f
       0.19751559 0.38348615 0.82668597 0.97307944
000040 7e 39 f0 3e c0 8a 92 3f de bb e9 3e
       0.46918863 1.1448593 0.45651144

encoder.level2_0.bn.bias f4 [19]
000000 b9 ac b9 3e 2e 8e 03 be dc aa a9 3e 64 98 4e bf
       0.3626459 -0.12847206 0.33138168 -0.8070128
000010 de e6 5c 3f b9 c0 1f 3e a7 fb c4 3d 1a b7 00 be
       0.86289775 0.15600862 0.096183114 -0.12569848
000020 ba 85 1d bf a0 98 3a bf fc 13 fa be 9b c3 20 3f
       -0.61532176 -0.7288914 -0.48843372 0.6279847
000030 f2 0b 2e 3f 6d 20 1d be 54 74 e6 bd 1a 77 d5 be
       0.6798698 -0.153444 -0.112526566 -0.4169243
000040 71 00 0d 3f b2 e2 9b 3f cd d0 b3 3e
       0.550788 1.2178557 0.3512024

encoder.level2_0.bn.running_mean f4 [19]
000000 90 9d 4c 3f 1e e9 26 c1 be 97 c4 c0 8e 68 0f 41
       0.7992792 -10.431913 -6.143523 8.963026
000010 cc 9b 4e bb 58 ed 5b c1 81 21 59 bf f5 bd 29 c1
       -0.0031525968 -13.745445 -0.8481675 -10.608876
000020 d3 fc a3 40 48 b1 22 c1 5c b1 af c0 13 57 06 c0
       5.1246123 -10.168282 -5.4904003 -2.0990646
000030 f2 14 00 c1 74 d1 82 c1 46 80 26 c1 96 34 bd c0
       -8.005114 -16.352272 -10.406317 -5.912669
000040 6c 86 50 be 42 eb 04 3f 79 5c 08 c0
       -0.20363778 0.51921475 -2.130644

encoder.level2_0.bn.running_var f4 [19]
000000 d0 fd 65 42 fe ab 40 42 5a 15 78 42 a6 a5 8a 41
       57.497864 48.16796 62.02085 17.330883
000010 a8 79 a5 41 e5 5f 5f 42 64 6f 93 3f c8 da 15 42
       20.684402 55.843647 1.1518369 37.463654
000020 29 6b 93 41 d6 04 7c 41 5e 0f 2c 42 75 c4 36 42
       18.427324 15.751181 43.015007 45.691853
000030 25 dd 20 41 ba d9 f1 43 e7 c2 c9 42 a8 71 d3 42
       10.05399 483.701 100.88067 105.721985
000040 7d 8d 3f 43 70 48 d8 42 ba 95 b2 42
       191.55269 108.14148 89.292435

encoder.level2_0.act.weight f4 [19]
000000 54 a1 bc 3d 94 09 41 3e d1 08 12 3f fe 44 83 3f
       0.092104584 0.1885131 0.570447 1.025543
000010 28 b4 ad 3d b9 17 21 3f 73 50 dc 3e fe 1f 8a 3d
       0.08481628 0.6292682 0.43030128 0.06744383
000020 d2 cd 34 be e0 88 e2 be 31 7d 9a 3e 5c 6e 85 bf
       -0.17656639 -0.44245052 0.30173638 -1.0424304
000030 0b 38 9f bd be 05 65 3f 76 d9 d9 be 07 08 01 3f
       -0.07774361 0.89461887 -0.42548722 0.50402874
000040 a4 70 5a 3f 86 d2 3e 3f 55 34 02 3f
       0.85328126 0.74539983 0.508611

encoder.level3_0.conv.0.weight f4 [19, 1, 3, 3]
000000 ea 38 62 3e fd 29 ca 3e 78 26 a5 3e 77 d1 8f 3e
       0.22092023 0.3948516 0.32255912 0.28089496
000010 f8 6c 21 3f 98 b1 2d 3f 33 02 56 3e 1b 80 bf 3e
       0.630569 0.6784911 0.20899276 0.37402424
000020 fa ed da 3e 5c 9a b3 bc 2f 00 8b bd 97 a3 38 bd
       0.42759687 -0.02192419 -0.067871444 -0.045077886
000030 28 8d a5 be 3b 0f 4f bf 01 0e 63 bf 47 2d e0 be
       -0.32334256 -0.80882615 -0.88693243 -0.43784544
000040 78 c3 40 bf 84 c4 41 bf f7 c8 eb bd 43 09 30 be
       -0.7529826 -0.75690484 -0.115129404 -0.17191033
000050 b9 44 aa bd bd ef 23 be 3a f8 8e bf 27 5f 6e bf
       -0.08313889 -0.16009422 -1.1169503 -0.9311394
000060 0f 10 a0 bc a6 29 2e bf 26 42 12 bf 20 73 26 3e
       -0.019538907 -0.680323 -0.57132185 0.16254854
000070 21 fa 31 3e a5 54 96 3d 82 0f 00 3b 44 f2 e4 3e
       0.17380573 0.073403634 0.0019540493 0.44716084
000080 f1 ac d9 3e 66 dd a4 3c 92 91 06 3f 55 04 02 3f
       0.42514756 0.020125102 0.5256587 0.5078786
000090 e9 12 65 be 0f 69 76 bd a5 b0 be bd 66 20 d0 be
       -0.22370495 -0.060158785 -0.09311036 -0.40649718
0000a0 c1 19 5c bf 0c 38 fb be 2d aa 19 3e 40 54 c7 bf
       -0.859768 -0.49066198 0.15006323 -1.5572586
0000b0 52 df b2 bf 6c 6b 7a bc 04 7f 66 bd 5b bd 12 3c
       -1.3974402 -0.0152844 -0.056273475 0.008956279
0000c0 b4 aa a2 be fb bd 6f bf 43 f4 7b bf 18 01 78 be
       -0.3177086 -0.9364926 -0.9841959 -0.24219167
0000d0 39 bf 5b bf b1 2c 5a bf 83 d8 2d 3d 4c 6f df 3d
       -0.8583866 -0.85224444 0.04244281 0.109099
0000e0 6e 07 13 3e c1 ed 84 3d b0 d8 19 3e e8 3a e8 3c
       0.14358303 0.064906605 0.15024066 0.028348401
0000f0 60 9f 3d 3d 89 37 96 3d 54 fe 5a 3d 00 8f e5 bd
       0.04629457 0.07334811 0.053465202 -0.11208916
000100 38 05 f5 bd cb 6a 42 3c f9 9a 11 be d3 56 f3 be
       -0.11963886 0.011866282 -0.14219274 -0.4752718
000110 7d 29 ec be ac 42 79 be e9 0b 1e bf 20 71 39 bf
       -0.46125403 -0.2434184 -0.61736923 -0.7243824
000120 1e 92 9e be 45 01 e7 be 8e d9 0f bf ee 23 39 bf
       -0.30970854 -0.45118156 -0.5619134 -0.7232045
000130 ef c0 2c bf 56 45 52 bf 32 5a 48 bf b4 51 3a bf
       -0.67481893 -0.8213705 -0.7826263 -0.7278092
000140 ff 1e 44 bf 6c d6 13 3c ba 62 c5 3e 5d be c1 3e
       -0.76609796 0.00902329 0.38551885 0.37840548
000150 9c 53 96 3e ed ea 09 3f 74 a6 1d 3f cf 82 e9 3e
       0.29360664 0.53874093 0.6158211 0.45607612
000160 4e 73 3a 3f 88 2a 6b 3f e6 b6 81 3d 44 4c 46 bd
       0.7283219 0.9186177 0.06333713 -0.048412576
000170 43 08 ca bd c9 04 e0 3b 69 40 e4 3e 55 c5 c0 3d
       -0.09864857 0.006836508 0.4458039 0.09412638
000180 8e 32 95 3e 92 01 ca 3f 26 65 b4 3f 21 dd 48 be
       0.29140133 1.5781729 1.4093368 -0.19615604
000190 6f e0 f9 bd bf af ab bd 73 b6 f1 be 05 32 1a bf
       -0.122010104 -0.0838313 -0.4720951 -0.60232574
0001a0 bb e7 03 bf 6f 9a a1 be 17 d5 0c bf 03 b2 19 bf
       -0.5152547 -0.31563136 -0.5501265 -0.6003725
0001b0 27 aa ff be 07 ae 19 bf 36 e6 17 bf 62 26 c8 be
       -0.49934503 -0.6003117 -0.5933565 -0.39091784
0001c0 fb d3 e5 be 4d 6c 13 bf 7b 46 09 bf 39 54 1d bf
       -0.4488829 -0.5758713 -0.5362317 -0.6145664
0001d0 09 3f 1c bf c6 aa 9d ba 5c c9 13 3e 33 50 60 3d
       -0.61033684 -0.0012029044 0.14432281 0.054763984
0001e0 7b 5f 07 3e 07 4a 1d bf 50 c4 9d be 70 94 8f 3d
       0.13220017 -0.6144108 -0.30813837 0.07010734
0001f0 d8 12 1a c0 93 18 f0 bf 90 05 1b 3e 60 22 de 3e
       -2.4074001 -1.87575 0.1513884 0.433856
000200 3c 24 ea 3e 6a 68 93 3e fa 79 9e 3e ee 23 c1 3e
       0.4573077 0.287906 0.30952436 0.37722725
000210 d6 b3 a1 3e e6 68 0e 3f db 5b 3c 3f e8 02 8a 3d
       0.31582516 0.5562881 0.7357766 0.067388356
000220 6d 3f 6b 3d 33 5b 15 3e a9 21 7c be 01 1e 1a bf
       0.057433534 0.14585571 -0.24622215 -0.6020203
000230 6f c9 dd be 08 9b 74 be be bf 47 bf 66 cf 27 bf
       -0.43317744 -0.23887265 -0.7802695 -0.6555084
000240 11 bc 61 bc 4c 9a bd 3e af d4 d6 be 47 e7 c2 3c
       -0.013777749 0.37031782 -0.4195914 0.023791922
000250 04 6f 25 c0 a8 a0 2e 40 72 0b 44 3e ed 62 9a c0
       -2.5849009 2.7285557 0.19144991 -4.824576
000260 35 f8 91 40 7a 3b 83 bd be 17 9c 3e 78 6c 25 3f
       4.5615487 -0.06407829 0.30486864 0.64618635
000270 7c 47 84 bd 4d c3 fd bf 88 66 3f c0 ae db c2 3d
       -0.06458947 -1.9825226 -2.990633 0.09514557
000280 b3 74 de 3f ca 3a 15 40 d9 43 c8 3c 2c 7e 0c be
       1.7379364 2.3317132 0.024446415 -0.13720006
000290 f4 2b 11 be 34 5b 2f 3e f8 bc 58 3f d0 d1 42 3f
       -0.14176923 0.17124635 0.84663343 0.761014
0002a0 83 42 52 3c 71 58 93 3f 0d 1f 97 3f
       0.01283324 1.1511365 1.1806351

encoder.level3_0.conv.1.dense.0.weight f4 [19, 19]
000000 51 fd 1a 3e d5 d6 47 3d d7 50 83 bd 66 ee 74 3e
       0.15135695 0.048788864 -0.06411903 0.23919067
000010 97 f0 24 3f 64 53 a3 3d c3 5b 86 bb 21 86 fa bd
       0.6442961 0.0797489 -0.0041002943 -0.12232614
000020 a6 cd aa be 7e 21 9e 3c e9 1a c9 3c 23 07 28 3e
       -0.33360022 0.01930308 0.024548965 0.16408972
000030 17 a7 ba 3e 28 83 4b be 65 7d 88 bd a7 6c 36 3e
       0.36455604 -0.19874251 -0.06664542 0.17814885
000040 76 54 d5 bb 3c 53 88 3e 28 05 49 be 56 a4 6d be
       -0.0065103127 0.26626003 -0.19630873 -0.2320722
000050 2b ea d9 bd 92 d7 ad 3e 0b 0c 5a bc ca ce ab 3e
       -0.10640367 0.3395353 -0.013308535 0.33556205
000060 7d 9e 07 3f 34 7a 4c bd 96 7b 4b 3e 11 4a 76 be
       0.5297621 -0.04992123 0.19871363 -0.24051692
000070 62 b8 ff bd 4c 29 bd bb 2f 08 b1 3e 66 b1 4e 3e
       -0.1248634 -0.0057727452 0.34576556 0.2018486
000080 36 db 50 bc ea ba 76 3c a2 3f 48 bd 09 bb 0b bc
       -0.012747576 0.015059212 -0.04888881 -0.008528479
000090 11 e9 8a 3e 4e c9 38 3e ca 75 59 bd 58 f2 4e bd
       0.2713094 0.18045542 -0.053090848 -0.050524086
0000a0 23 10 4f 3e ff 43 01 be b3 13 09 bf 45 d5 0e bd
       0.20221 -0.12623595 -0.53545684 -0.03487136
0000b0 8c 88 45 3d 8e 3b 92 3e cd de a3 3e f2 c0 25 3e
       0.048225924 0.28561062 0.3200592 0.16186884
0000c0 4e ab cd 3d 72 52 da be 3d 59 91 be a9 92 ea 3d
       0.100424394 -0.42641026 -0.28388396 0.114537545
0000d0 54 f8 46 3e 65 bb 44 be 20 a4 8c bc 4d a8 a6 be
       0.19430667 -0.1921211 -0.017168105 -0.32550278
0000e0 b2 4c c3 3e 89 99 b3 bd 60 d5 1e be 87 5f 7f 3d
       0.3814445 -0.08769519 -0.15511084 0.06234696
0000f0 5e f8 e8 3d b1 13 9f be e0 22 78 be 1d 8d c9 3d
       0.11375497 -0.3106971 -0.24232054 0.09841368
000100 b2 c3 05 bc 0d 0b 6d 3e 9b aa 60 3e 39 b5 9b 3d
       -0.008164333 0.23148747 0.21940081 0.07602925
000110 9a 3c 05 bf a5 9f 53 be 0c cf dd 3b 24 fe 5f bb
       -0.52045596 -0.20666368 0.0067690667 -0.003417858
000120 7d 90 c7 bd 0f dd 40 bc 45 b0 fe bd d4 ae e2 bc
       -0.09744356 -0.0117714545 -0.124359645 -0.027671255
000130 1e c8 f8 3e 3c 0a b3 3b b2 ff 22 bf 8a 2c 1d 3a
       0.48590177 0.0054638665 -0.6367141 0.00059957115
000140 5d 1b 40 be ce 78 ae bd 8f b8 db 3d 2a e4 3e be
       -0.18760438 -0.085191354 0.10728561 -0.18641725
000150 44 ae d4 3e 37 bc 6d bd 05 f9 91 be 2a 62 a1 be
       0.41539204 -0.058040824 -0.285103 -0.31520206
000160 fc 42 47 be 63 79 eb 3d 69 40 78 3e ae bc 09 3e
       -0.19459146 0.11497762 0.2424332 0.13450882
000170 60 29 b4 3c 40 51 a0 be 24 63 9c 3e 14 f6 50 3d
       0.021992385 -0.3131199 0.30544388 0.05101593
000180 56 52 03 3f 5e a2 32 bd 36 db c7 bd e3 d7 98 be
       0.5129751 -0.043611877 -0.09758608 -0.29852208
000190 53 6c 02 3f 09 45 f1 bc 39 f8 47 3e 0b 42 20 3f
       0.5094654 -0.029451864 0.19528283 0.62600774
0001a0 9b 95 0f be b3 39 43 be 62 72 cb bd 4e 67 94 be
       -0.14021914 -0.1906498 -0.09933926 -0.28985065
0001b0 43 6b 52 3e 1f c6 c6 3e e4 99 11 be e2 84 c1 bc
       0.2054873 0.3882303 -0.14218861 -0.023622934
0001c0 5e ae 2f be 54 c2 25 3f b5 22 27 3c c0 e0 af bc
       -0.1715636 0.64749646 0.010201146 -0.021469474
0001d0 47 c7 de 3c 11 ca ee bb cf 66 e2 3c 51 8e 64 3c
       0.027194632 -0.007287272 0.027636914 0.0139499465
0001e0 ab 20 07 3c bb bd a5 3b df fd 70 3c 55 e8 f3 3c
       0.008247535 0.005058018 0.014708965 0.02977387
0001f0 34 3f ec bc 1c ca 9b bc b9 00 e6 3c 81 2b c3 bc
       -0.028838731 -0.019017272 0.028076516 -0.023824455
000200 22 51 ee 3c 15 33 18 3c 5d 7c 01 3d 58 ad 12 3d
       0.029091422 0.009289523 0.031612743 0.035809845
000210 4f 40 f4 bb 29 89 47 3e ce ad 25 bc 6e 50 a7 be
       -0.0074539552 0.19485916 -0.010112239 -0.3267855
000220 3d 2b 62 be b8 f7 bf be 5c ed 54 3e 3d 21 54 3c
       -0.22086807 -0.37493682 0.2079367 0.012947378
000230 dd 9d 02 3e b6 12 33 3e 59 1a 4e be 1a fa 46 be
       0.12755533 0.17487606 -0.20127238 -0.19431344
000240 85 d7 9f bd ba 17 89 be d1 1f b7 bd c5 92 8e 3e
       -0.07804779 -0.26775914 -0.089416154 0.2784635
000250 64 ce 18 be 97 0c 48 bd 35 20 bc be 16 90 ae 3e
       -0.14922482 -0.04884013 -0.36743322 0.34094304
000260 98 fb 44 be 03 c2 7d 3c c8 b5 4b 3e f3 8f f9 3d
       -0.192366 0.0154881505 0.19893563 0.12185659
000270 c7 f1 12 3e 35 91 b0 bc ba 10 08 3c 84 0b 90 bc
       0.14350043 -0.021553615 0.008304769 -0.017583616
000280 37 e2 7a bd ba 0f c1 bc ff b6 7c 3a e2 23 24 3d
       -0.06125089 -0.02356707 0.00096403057 0.040073283
000290 92 13 da 3d 3b 39 ef bd 4b e8 9a bd 23 06 21 bd
       0.10648264 -0.11680838 -0.075638376 -0.039312493
0002a0 1f f7 0f 3d d6 83 c1 3d bd b6 0d be 77 63 07 3e
       0.035147782 0.09448974 -0.1383924 0.13221537
0002b0 3c 85 8a 3d 06 27 93 be c5 cc 7e bd 51 34 d7 be
       0.06763694 -0.2874071 -0.062207002 -0.42032102
0002c0 f4 03 b0 be 79 7b 05 3d e0 5c 60 3d 23 68 df 3e
       -0.34378016 0.032588456 0.054776073 0.43634138
0002d0 b0 84 21 be 80 c9 a6 be e6 37 dd bd 34 f8 8c be
       -0.15773273 -0.32575607 -0.108016774 -0.27533114
0002e0 45 7f 83 3d 1e 21 22 3e ae 08 8a bc cd 8e 40 3b
       0.06420759 0.15832946 -0.016849842 0.002938199
0002f0 31 f5 81 be 7f a5 29 3e f3 1c 14 3e 80 9c 63 be
       -0.2538238 0.16567038 0.14464168 -0.22227669
000300 c0 02 9f bd 5f 0b 2c 3e aa 0e 70 be 3e 2a 04 bf
       -0.077641964 0.16801213 -0.23443094 -0.51626956
000310 fc 7c 23 3e 9c 0a 32 be 97 39 54 3d a6 34 c7 3e
       0.15965647 -0.1738686 0.051812734 0.38907355
000320 c4 eb f1 bc 9b f6 ef be 02 be 0f be 76 f2 31 bd
       -0.029531367 -0.46867833 -0.14037326 -0.04344412
000330 cd e1 11 3e 18 31 22 bd b8 d9 e6 3c 04 9f d2 be
       0.14246292 -0.0395976 0.028179988 -0.41136944
000340 4a 1e e3 be 02 78 b4 3d d2 8e 4e 3d ae ee cf be
       -0.44359046 0.08811952 0.050429173 -0.40611786
000350 a0 fe 80 be d4 58 05 bf 6b 87 73 be b6 71 85 3b
       -0.25194263 -0.52088666 -0.23782127 0.0040723933
000360 73 1e 18 be b6 70 4e 3e 4f cc eb bd cb fa f5 bd
       -0.14855365 0.20160183 -0.11513578 -0.120107256
000370 23 f6 9c bd eb e8 9f be 01 bf 01 3e ab b0 8b be
       -0.07664134 -0.3123239 0.12670518 -0.27283224
000380 ab 11 64 3e 12 ec 3a 3c 56 75 8c be ea 97 02 bc
       0.22272365 0.011408823 -0.2743327 -0.007970789
000390 51 5c 90 3d 67 12 35 be 9e ab 13 3e 88 f2 2d be
       0.07048858 -0.17682801 0.14420936 -0.1698705
0003a0 6e 75 99 be 20 cb 9e be 5e f5 15 3d 94 2c 60 3d
       -0.29972404 -0.31014347 0.036610954 0.054730013
0003b0 00 bc 42 3e 05 a9 65 3e 19 61 11 3e af 19 f7 bd
       0.19017029 0.22427757 0.14197196 -0.12065446
0003c0 82 0b 0a be 85 8c ca 3d c7 0f cf bd 04 93 41 3e
       -0.13480952 0.09890083 -0.10110431 0.18903738
0003d0 8e 13 34 bd 76 67 a4 bd 55 eb b4 be e4 f3 a4 3d
       -0.04396396 -0.08027546 -0.35335794 0.08054331
0003e0 ff e3 62 bd 26 f2 2c be 94 7a c8 be 2f e1 17 bf
       -0.055393215 -0.16889247 -0.3915602 -0.5932798
0003f0 73 bc 53 be ef 4f 41 3d 2e b9 b4 3d 65 7e 11 3f
       -0.20677356 0.04719537 0.08824383 0.5683349

encoder.level3_0.conv.1.dense.0.bias f4 [19]
000000 ab 0d de be c0 a4 83 be 69 b4 ae 3e e5 1c 0d 3e
       -0.43369803 -0.25711632 0.34122017 0.13780554
000010 42 60 bb 3e dc d5 ea 3e 46 34 04 bd d8 be 99 3e
       0.36596876 0.45866287 -0.032276414 0.30028415
000020 1b 41 f0 bd bb 3b 8e 3e 29 fe 74 3e 6e 54 7a 3e
       -0.11731168 0.27779946 0.2392508 0.2444627
000030 b9 a9 20 3d bc da 02 3f 31 a8 89 3e c8 ee ad 3e
       0.03922436 0.5111501 0.26886132 0.33971238
000040 06 7b ee 3e ff 2a 02 bf c5 75 b0 3e
       0.46578234 -0.50846857 0.3446485

encoder.level3_0.conv.1.dense.1.weight f4 [19]
000000 7e 29 43 3f 19 55 50 3f 44 6a 2f 3d cf 69 2f 3d
       0.7623519 0.8137985 0.042825952 0.042825516
000010 44 6a 2f 3d 28 06 b2 3d a9 6e 52 3d 27 80 20 3d
       0.042825952 0.086925805 0.051375065 0.039184716
000020 a0 2f ba 3e 44 6a 2f 3d ff 4a 2f 3d 9b 5c 2c 3d
       0.3636446 0.042825952 0.04279613 0.042080503
000030 ae d7 2b 3d 44 6a 2f 3d 44 6a 2f 3d 44 6a 2f 3d
       0.041953735 0.042825952 0.042825952 0.042825952
000040 44 6a 2f 3d c2 97 2e 3f 44 6a 2f 3d
       0.042825952 0.68200314 0.042825952
