result/C3Net/C3Net_setting2.pth (torch_old, 977683 bytes, 800 tensors)

encoder.level1.conv.weight f4 [16, 3, 3, 3]
000000 bb c5 14 3d ef 5c 0c 3e 6a e3 31 3c ea f8 cf 3d
       0.036321383 0.13707326 0.010857442 0.101548985
000010 a4 2d 39 3e 64 6e c7 3d 85 7e 2c be 3a f0 8a be
       0.18083817 0.09737852 -0.16845138 -0.27136403
000020 fc 54 02 be 89 5b 21 bd 3d b5 fc 3d b6 eb 38 bd
       -0.12727731 -0.039393935 0.12339256 -0.045146666
000030 55 d1 ac 3d cf bc 47 3e 4d 08 9d 3d 00 ca 92 bd
       0.084383644 0.19505619 0.07667599 -0.07167435
000040 a5 a1 56 be f5 ac 9b bd c9 06 ea 3b f1 5d 1f 3e
       -0.209601 -0.07601348 0.007141922 0.1556318
000050 32 48 a0 bc 40 25 95 3d 53 bc 2a 3e d9 3f 8d 3d
       -0.019565675 0.072824955 0.16673402 0.068969436
000060 25 a3 05 be 5d e6 7d be 30 df cc bd c8 c5 7e 3c
       -0.13050516 -0.24794908 -0.10003507 0.015550084
000070 8c 23 d1 3d 54 6f 01 3c 67 26 c7 3d f7 f6 8d 3e
       0.10211858 0.007900078 0.097241215 0.27727482
000080 46 4f cc 3d 5a 2b 45 bd 33 67 9a 3d 1d 7a 42 bd
       0.09976058 -0.048137046 0.07539215 -0.047479738
000090 de c0 4a be a4 cb 40 be 85 00 8a be b9 12 8e 3c
       -0.19800135 -0.18827683 -0.2695352 0.017342912
0000a0 3d a6 1e 3e 98 04 1e bd 44 31 70 bd ff ca 31 3d
       0.15493102 -0.0385786 -0.058640733 0.043406483
0000b0 73 cc b0 bd 9e ea cc bd 09 4b 1f bd 42 22 0b be
       -0.086327456 -0.10005687 -0.03888992 -0.13587287
0000c0 32 de a4 3d e0 b7 73 3e a6 c2 37 3d dd ec dd bc
       0.08050193 0.23800611 0.044863366 -0.027090484
0000d0 ca f1 db 3d d6 c9 3c bd 36 14 00 00 88 3f 00 80
       0.10739477 -0.046090923 7.25e-42 -2.2791e-41
0000e0 3c 70 00 80 ef 13 01 00 a6 22 01 80 53 72 00 80
       -4.0262e-41 9.8986e-41 -1.04265e-40 -4.1012e-41
0000f0 f4 2d 01 00 b2 32 00 80 ce 28 00 80 0b 4d 00 80
       1.0832e-40 -1.8186e-41 -1.4638e-41 -2.7638e-41
000100 64 a7 00 80 e6 ac 01 00 9a a0 00 80 d5 b1 00 00
       -6.0048e-41 1.5386e-40 -5.7613e-41 6.3794e-41
000110 29 e6 00 00 a9 b8 00 80 eb b6 00 00 70 15 00 00
       8.2566e-41 -6.6244e-41 6.5619e-41 7.69e-42
000120 43 55 00 00 8c 5f 01 00 ac d8 00 00 b1 cb 00 00
       3.0586e-41 1.26111e-40 7.7727e-41 7.3071e-41
000130 18 3c 00 80 91 bd 00 00 dd 4d 02 80 1c 91 00 00
       -2.1558e-41 6.8004e-41 -2.11603e-40 5.2055e-41
000140 e1 36 01 80 22 dc 0c be d6 4f 23 3c 72 96 14 3e
       -1.11522e-40 -0.13755849 0.009967765 0.14510515
000150 b8 77 88 be 27 d6 ba 3c d1 d6 73 3e 4b 48 7d bd
       -0.26653838 0.022807194 0.23812415 -0.061836522
000160 39 2c a1 3c c1 63 ce 3d 9d 90 6b be 58 fe b7 3c
       0.019674407 0.1007762 -0.23004384 0.022460148
000170 f5 fe 44 3e 8e 3c cb be 61 dc 20 3d af ba 95 3e
       0.19237883 -0.39694637 0.03927267 0.2924399
000180 ab 9d 10 be 48 30 a3 3c 74 e1 03 3e 47 76 27 be
       -0.14122646 0.019920483 0.12878972 -0.16353713
000190 7b cf 40 3d b8 a4 28 3e 24 b0 b2 be 79 cc f3 3c
       0.04707287 0.16469085 -0.3490001 0.029760586
0001a0 42 7a 8e 3e cb 2b df bd 19 13 55 3b 6c cd d4 3d
       0.2782765 -0.10897025 0.0032512604 0.103907436
0001b0 08 71 07 3e 88 71 9f 3c c1 be cd bd b4 66 95 3e
       0.13226712 0.019463316 -0.10046149 0.2917992
0001c0 cd 82 f2 3b 8f 7c 93 be 90 c0 ab 3d 5b c8 36 3c
       0.0074008466 -0.28805968 0.08386338 0.011156167
0001d0 19 b4 66 bd a6 b6 3c 3e f4 5e b3 bc 67 60 4a be
       -0.0563241 0.1842905 -0.021895863 -0.19763337
0001e0 ee be c6 3e b8 8e 36 bd 1b 14 d6 be f5 61 27 3e
       0.38817543 -0.0445697 -0.41812214 0.16345961
0001f0 b1 6a 7f bd 32 7d fe bd 63 b8 2c 3e 2c e4 9a 3b
       -0.06235761 -0.12426223 0.16867213 0.0047269072
000200 71 e5 2a be ff 39 ba 3e 10 ad 1d 3b 72 cb be be
       -0.16689087 0.36372373 0.0024059452 -0.3726459
000210 e9 e3 17 3e e0 97 65 bc 23 5b da bd 49 e8 e7 3c
       0.14833035 -0.014013261 -0.10661914 0.028309004
000220 11 94 91 3d 32 b7 2b bc 40 b0 9e 3d 66 98 e5 3d
       0.071083196 -0.010480689 0.07748461 0.11210708
000230 04 92 73 3d 1f a0 cc 3d f9 2e fe 3d 2c 9f 42 3d
       0.059465423 0.09991478 0.12411303 0.04751508
000240 ae 3c eb 3d 0b d4 be 3d 98 58 e5 3d ff 3f fa 3d
       0.11486183 0.09317788 0.111985385 0.122192375
000250 e4 08 91 3d 51 8d f7 3d 6e 0a 29 3e 5d b5 f0 3d
       0.07081774 0.12087501 0.16507885 0.11753342
000260 ff fa f2 3d c2 b3 ee bd b9 f8 26 be 88 6d 32 bd
       0.1186428 -0.1165538 -0.16305818 -0.04356149
000270 3b b8 76 be 35 5e a9 be cd 8c 29 be d6 84 f0 bd
       -0.24093716 -0.33079687 -0.16557617 -0.117440864
000280 c4 10 4c be 9f eb c0 bd 38 7f 78 3c 62 94 cf 3c
       -0.1992827 -0.09419941 0.01516705 0.02533931
000290 1a 18 dd 3d 69 f4 64 be e3 bc c5 be b6 21 42 bd
       0.10795613 -0.2235886 -0.38620672 -0.04739543
0002a0 0d c5 77 bd 60 64 b5 bd 3c 82 46 3d 61 c4 ea 3d
       -0.060490657 -0.08857036 0.048464045 0.114632376
0002b0 d3 bd 11 3e d5 14 34 3d 5f 47 8a 3d 51 0b a3 bd
       0.14232568 0.04396518 0.06751894 -0.07961143
0002c0 cc 3d 85 3d 2f e8 e8 3d c7 89 c8 3d 53 76 87 3d
       0.065059274 0.113724105 0.09791904 0.066143654
0002d0 5a 2a 7a 3d 21 a5 6f 3d e1 eb 4f 3c 4e fe 69 bd
       0.061075546 0.05850709 0.012690515 -0.05712729
0002e0 b9 9b 62 be be f0 43 bc 57 57 4d 3c d1 90 8b bc
       -0.22129716 -0.011959253 0.0125330305 -0.017036827
0002f0 9c a2 a3 bb 97 7e a1 3d 12 f4 2c bb 85 b6 f8 bc
       -0.00499375 0.07885473 -0.0026390594 -0.03036047
000300 52 2a b6 3c 74 da 7e 3c a6 07 c1 3a 88 be 06 bd
       0.022236977 0.015555013 0.0014727011 -0.03289655
000310 64 88 67 3b 69 ff ea 3b 48 ca aa 3d 2c b6 02 3d
       0.0035329098 0.0071715605 0.08339363 0.031912014
000320 9e e3 17 3d 19 2f bc bc 3c e7 3c 3d 5f 7d b7 3d
       0.037082307 -0.022971677 0.04611896 0.089594595
000330 97 4d 6e bd 8f 44 41 3d 35 9e 09 3e fd 27 2b bd
       -0.058179464 0.047184523 0.13439257 -0.041786183
000340 66 a8 6a bd 68 67 71 bc c4 d2 6d be 99 9a 10 be
       -0.057289504 -0.014734127 -0.23224932 -0.14121474
000350 61 f3 7c bd b9 19 a2 be 76 29 3f be 88 f5 82 bd
       -0.06175554 -0.3166025 -0.1866816 -0.063944876
000360 85 6b 8b 3c 26 d2 02 be 8e 64 d5 3c 92 ed ec 3d
       0.017019043 -0.12775478 0.026048925 0.115687504
000370 3d 15 dc bd 13 49 c0 3d d5 2b 3a 3d 48 d7 93 bd
       -0.107462384 0.09388938 0.045451958 -0.07218796
000380 ec fb f4 3c ba 84 6c 3d eb 71 73 be c5 ac ba 3d
       0.029905282 0.057743765 -0.23773925 0.091149844
000390 9f ce 39 3e 7b 0f 66 be 68 80 30 3e c3 01 3e 3d
       0.18145226 -0.22466843 0.17236483 0.0463884
0003a0 fb ed 4e be 88 56 be 3d 7a 40 64 3d c4 ad 35 be
       -0.2020797 0.09293848 0.055725552 -0.17742068
0003b0 93 73 45 3d a9 a1 2b 3e 43 04 28 be 2f 9b 0e 3e
       0.048205923 0.16760887 -0.16407876 0.13926385
0003c0 c9 fb 01 3d bc f8 1f be bb f1 1a 3d 60 d0 0e be
       0.03173426 -0.15622228 0.03782819 -0.13946676
0003d0 ad d0 94 3c 9d 1a 08 3e d5 92 6b be c7 37 a5 3c
       0.01816591 0.13291402 -0.2300523 0.020168198
0003e0 73 ba 52 3e 0b 08 1e be 26 0a 09 3d ee ca 18 3e
       0.20578937 -0.15432756 0.033456944 0.14921162
0003f0 6e 4e 41 be 21 c3 d4 3b 43 fa 1f 3e f1 d3 8a be
       -0.18877575 0.0064929877 0.15622811 -0.27114823

encoder.level1.bn.weight f4 [16]
000000 78 67 85 3f 3e fe 4a 3f 3e 9e 02 00 4d c7 1c 3f
       1.0422201 0.7929419 2.40438e-40 0.6124161
000010 65 e3 19 3f d2 6c 22 3f 21 fb 6c 3f aa b0 d3 3f
       0.601126 0.63447297 0.9257069 1.6538289
000020 f4 df 88 3f 88 90 8f 3f 05 6b cc 3e 9e a2 91 3f
       1.0693345 1.1215982 0.399254 1.1377752
000030 7c d9 3a 3e 0b f4 9e 3f ce 5a d6 3f 1f ed 79 3f
       0.18247026 1.2418226 1.6746461 0.97627443

encoder.level1.bn.bias f4 [16]
000000 ce e3 01 3d e0 44 d4 3c f3 18 05 80 d0 32 86 3d
       0.031711392 0.025911748 -4.68128e-40 0.065526605
000010 fe 70 0a 3f ef 3d 99 be c6 d8 13 3c 97 ee f0 bd
       0.5407866 -0.29930064 0.009023851 -0.117642574
000020 3c d2 88 3e 7a 6c 12 3b 63 b2 88 be aa c8 ee 3c
       0.26722896 0.002234249 -0.26698598 0.029148418
000030 df be 2a b6 9d de ce 3d 0f e8 09 be 33 12 88 3e
       -2.5443076e-06 0.10101054 -0.1346743 0.26576385

encoder.level1.bn.running_mean f4 [16]
000000 e5 2c f1 b4 96 86 d1 b6 9c e4 80 af 4a e9 93 b6
       -4.4922413e-07 -6.2443532e-06 -2.34455e-10 -4.4081e-06
000010 22 77 1e 36 36 08 84 b7 40 4f f0 36 38 94 98 b3
       2.361318e-06 -1.573945e-05 7.1617833e-06 -7.1050124e-08
000020 f7 b0 0d 36 08 f4 5c b6 f5 1f d1 37 8d 3f 1b b7
       2.1113644e-06 -3.29246e-06 2.4929623e-05 -9.2535165e-06
000030 26 58 ba 32 a9 3c 26 37 ee e2 cd 37 c8 e9 60 b6
       2.1693335e-08 9.908495e-06 2.4543577e-05 -3.351468e-06

encoder.level1.bn.running_var f4 [16]
000000 1f 94 83 35 ed c3 27 35 ba ae 2e 29 50 1c 4d 36
       9.80337e-07 6.249746e-07 3.8787312e-14 3.056386e-06
000010 87 a1 6d 36 1b e5 95 35 88 58 37 35 d2 a8 04 37
       3.5409773e-06 1.1168044e-06 6.830164e-07 7.90712e-06
000020 b5 37 82 34 d2 fe 1d 36 9a 3b b2 35 1b 3a 8d 35
       2.425492e-07 2.3543148e-06 1.327938e-06 1.052223e-06
000030 df ab d2 29 0a 98 85 36 82 21 49 37 d4 3f 7a 35
       9.355688e-14 3.9814086e-06 1.1988335e-05 9.322514e-07

encoder.level1.act.weight f4 [16]
000000 81 1d 87 3e a0 86 05 be dc 01 06 00 1a 88 cd 3f
       0.26389697 -0.13039637 5.5168e-40 1.605716
000010 f7 48 fd 3d db 3d 23 3f fe a8 a2 be a5 a3 d8 3e
       0.123674326 0.6376626 -0.31769556 0.4231235
000020 ca fa 3a 3d 39 88 62 bf e3 8c 0d 3f fd d9 1d 3f
       0.045649327 -0.8848911 0.552931 0.6166075
000030 64 e5 cd 25 24 fc 0a 3f fa 8b cb 3e 26 6a 18 3d
       3.5717272e-16 0.54290986 0.3975523 0.037210606

encoder.b1.bn.weight f4 [19]
000000 44 1c 35 3e 35 e6 ce 3e 7c 40 02 80 bb 92 f4 3e
       0.17686564 0.4041001 -2.06804e-40 0.47768196
000010 43 37 c7 3e 22 00 d2 3e ef 7a c4 3e 5c 7d cc 3e
       0.3890935 0.41015726 0.3837504 0.39939392
000020 05 73 d5 3e a0 d7 4d 3e 33 7a 48 3f 60 be 04 3f
       0.41689315 0.20101786 0.7831146 0.5185299
000030 36 29 12 3b 6e 87 d9 3e c1 cb df 3e 9a c0 c0 3e
       0.0022302396 0.42486137 0.4371014 0.37646943
000040 cf b7 02 3f 13 b2 ca 3e 1c 04 37 3f
       0.5106172 0.39588985 0.71490645

encoder.b1.bn.bias f4 [19]
000000 a7 e0 88 bd 74 5c d4 3d f5 53 03 80 92 ce 09 3e
       -0.06683474 0.103691965 -3.05625e-40 0.13457707
000010 14 1e 41 3d 4f 67 8f 3e 02 16 b3 3d ad 6c 01 be
       0.047147825 0.28008506 0.08744432 -0.12639113
000020 d5 3b 93 3e 3e 30 4d bd a4 0e b4 3e 61 85 ce be
       0.28756586 -0.050094835 0.3516742 -0.40336135
000030 b5 9d d4 b6 7c 62 84 3d 97 d4 99 bd 4c 6d 65 3d
       -6.336452e-06 0.06464097 -0.075112514 0.056012437
000040 6a fe 2e be 9b 77 2c be de 47 63 bd
       -0.17089239 -0.16842501 -0.05548846

encoder.b1.bn.running_mean f4 [19]
000000 0c 58 08 3d 87 80 dc 3c 04 00 00 00 f6 54 84 3d
       0.033287093 0.026916755 6e-45 0.064615175
000010 8f 7a 0a 3f 2f f6 42 be 0b 27 7d 3c 8e b5 3d bd
       0.5409326 -0.19039224 0.015451203 -0.046315722
000020 6d df 88 3e 61 5a b5 3c 47 1f 17 be eb 49 fe 3c
       0.2673296 0.022137823 -0.14758025 0.031041106
000030 62 c8 17 32 52 6b d7 3d e6 ce 47 bd c4 2a 88 3e
       8.834919e-09 0.105185166 -0.048781298 0.26595128
000040 c3 5c c1 b7 4b 9b 27 b7 cf 5e cc b6
       -2.3050588e-05 -9.990133e-06 -6.090711e-06

encoder.b1.bn.running_var f4 [19]
000000 be 98 35 3a d7 c9 a1 39 04 00 00 00 c9 7c c7 3a
       0.00069273624 0.00030858695 6e-45 0.0015219684
000010 9c 03 a7 3a 97 35 3f 39 08 f8 14 39 a6 c6 8e 3b
       0.0012742165 0.00018235143 0.00014206779 0.004357177
000020 39 af 8e 39 13 1a 0d 3b df 89 87 38 42 0e 8d 3a
       0.00027214902 0.0021530434 6.462982e-05 0.0010761695
000030 c4 ae 06 00 25 73 8a 3b 9e 22 c8 3b 1b b3 64 3a
       6.13707e-40 0.004225152 0.0061076423 0.00087241986
000040 b5 45 88 37 06 37 89 37 6c 39 8c 37
       1.6244923e-05 1.6357295e-05 1.671604e-05

encoder.b1.act.weight f4 [19]
000000 0f a9 05 c0 c2 9f 90 3e 8e d4 00 00 c2 dd d9 be
       -2.0884435 0.28246886 7.625e-41 -0.42552
000010 35 24 69 bf f0 25 5d bf c5 5a 25 3e 81 e5 4b be
       -0.9107087 -0.86386013 0.16147907 -0.19911768
000020 e2 86 34 bd b5 84 ea bf 98 8a 92 3c d5 c6 12 3f
       -0.044073947 -1.8321749 0.017888352 0.57334644
000030 05 b2 06 80 54 5b 22 3f 77 51 fb bd 12 6a d3 bd
       -6.14874e-40 0.63420606 -0.122713976 -0.10322966
000040 62 8e ba bd 2e af 51 bc 24 4d f4 be
       -0.091091886 -0.012798114 -0.47715104

encoder.level2_0.c1.conv.weight f4 [16, 19, 3, 3]
000000 7d bb d7 3b 64 43 50 3b 3f 71 91 bc e3 9e 30 3b
       0.0065836296 0.003177845 -0.017754195 0.0026950173
000010 91 e7 87 3a 45 2a 8a bb f1 6c 92 bc 4c f2 63 bc
       0.0010368695 -0.0042164647 -0.017874213 -0.013912749
000020 dd 40 87 bc 03 32 a4 ba 7b 83 c5 3b 03 b9 f1 ba
       -0.016510421 -0.0012527112 0.0060276366 -0.0018441979
000030 6f 4b e1 3c 92 ff 19 bc 4e 54 eb bb 07 2b b0 3b
       0.02750179 -0.009399312 -0.0071816808 0.005376223
000040 50 90 30 3c 15 4d 3b 3b 35 52 01 80 6d 38 01 00
       0.010776594 0.002857988 -1.21326e-40 1.12077e-40
000050 e5 d7 00 00 aa 35 00 80 55 69 01 00 ac 48 00 00
       7.7448e-41 -1.9251e-41 1.29622e-40 2.607e-41
000060 a9 15 00 80 db 56 01 80 a4 12 01 80 13 86 75 bc
       -7.77e-42 -1.22993e-40 -9.8522e-41 -0.014985579
000070 2c 46 cf bc d4 8b 14 bc 69 85 80 3c 10 08 01 3c
       -0.025302015 -0.009066541 0.015688615 0.007875457
000080 92 6d 03 3c 6a 69 b5 bb d8 7b 4f bc 3e 8d 8b bc
       0.008021729 -0.005536248 -0.012663804 -0.017035123
000090 d3 0f 08 3e 9d bf 4a 3e 41 08 84 3d 73 c6 10 3e
       0.13287286 0.19799657 0.06446887 0.14138202
0000a0 bb 55 60 3e 18 b9 a4 3d 1b ac 0f 3e a3 a7 75 3e
       0.21907704 0.08043116 0.14030497 0.2398973
0000b0 83 04 be 3d f4 ec 36 bc 6a f0 f4 bc 6c 5a dc bb
       0.09278204 -0.011164892 -0.029899795 -0.0067246463
0000c0 09 2c b7 bb 40 5e 8d bc 5f e1 7c 3c bc 1d c2 bc
       -0.005589966 -0.017256856 0.015434592 -0.02369582
0000d0 f7 74 0a bd ba 68 d3 ba d5 3b c4 bc 7d b8 87 bb
       -0.033802953 -0.0016129233 -0.023954311 -0.0041418658
0000e0 65 95 7c bc db c1 1a bb b9 b9 e5 3c 21 e2 da 3b
       -0.015416478 -0.0023614082 0.028042661 0.0066797887
0000f0 ee e6 0a bd 5f 5f 5d 3c 12 32 b1 bc 3f b9 79 bd
       -0.033911638 0.013511508 -0.02163032 -0.06096768
000100 fa 52 bf bb 8f 4a 58 3c b8 86 51 bd b6 f6 44 3d
       -0.005838749 0.01320137 -0.05115387 0.048086844
000110 dc 32 2b 3d 2a 9b de bc b0 98 40 bc d8 1a 09 3c
       0.04179655 -0.027173597 -0.011755154 0.008368216
000120 e9 c7 b4 bc fe 81 2a 3c 6c bd 25 3c 8f 81 e6 bc
       -0.02206798 0.010406969 0.0101159625 -0.02813795
000130 66 38 ca bb 9b 6d bb 3c ff 11 d9 bc d0 93 7a 3c
       -0.006171274 0.022879412 -0.026497839 0.01529403
000140 7b 1f d1 bb 77 ee b7 bd dc 10 a2 bd 96 28 56 bd
       -0.0063819266 -0.089810304 -0.07913372 -0.0522848
000150 80 13 63 bd 99 e4 a8 bc 22 44 18 bd c7 78 bc bd
       -0.05543852 -0.020616816 -0.03717435 -0.09202724
000160 2b a1 c5 bd 74 9f 98 bd 4c 11 fe bc 28 88 3e bc
       -0.09649881 -0.07452288 -0.031014107 -0.011629142
000170 fe 74 60 3c 43 e1 a1 3b 2e d3 2d 3d b1 29 d4 3c
       0.013699768 0.0049401834 0.042437725 0.025898786
000180 41 95 22 bd a6 d5 bb 3b e4 30 04 3c 0a dc 6e bc
       -0.03969312 0.005732256 0.008068297 -0.014578829
000190 48 a0 2d 3c 7b 89 8f 3c de 74 db bc 7a 1a 94 3c
       0.010597296 0.01752161 -0.026789125 0.018079031
0001a0 4e 2f 82 3b 9a b7 3b bb 8a cf b4 3b f3 d4 66 bb
       0.0039729243 -0.002864337 0.0055179046 -0.0035222142
0001b0 51 e1 00 80 a9 dd 00 80 6f 3a 00 00 4f 19 00 00
       -8.0828e-41 -7.9517e-41 2.0962e-41 9.079e-42
0001c0 b3 40 01 80 5f 92 00 00 48 a0 00 80 b9 c5 00 00
       -1.15045e-40 5.2508e-41 -5.7498e-41 7.093e-41
0001d0 58 8c 00 00 e5 4e e5 bc ce b7 ed bc 8d 0e 2c bd
       5.0346e-41 -0.027991721 -0.029018309 -0.042006064
0001e0 93 49 a1 3d ed 30 5a 3d 53 13 26 3c 64 31 18 3c
       0.07875361 0.053269316 0.010136443 0.009289119
0001f0 aa 63 38 bb 63 a5 fa bc 0e 21 22 bd e4 00 e0 3c
       -0.0028135576 -0.03059644 -0.039582305 0.027344175
000200 d8 37 bf 3b b3 db d1 bc 6f 53 51 3c 9f 01 c0 3c
       0.0058355145 -0.025617456 0.01277624 0.023438273
000210 cc 4b d4 bb 3d 98 f0 3c 4e 8d a6 bb fd 8e 29 bd
       -0.0064787623 0.029369468 -0.005082763 -0.04139613
000220 fa d7 2c 3c 84 3c 27 bc cb fa f7 bb 4b f7 c8 3c
       0.01054954 -0.010207299 -0.0075677386 0.024531981
000230 22 2c 7b 3c 04 4b bf bc 4a 6a 41 3a 61 da e1 3b
       0.015330346 -0.0233512 0.0007378204 0.006892488
000240 73 7e 55 3c 43 cd 24 3c a0 b7 44 3a 97 94 7b 3c
       0.013030636 0.010058704 0.0007504169 0.015355251
000250 57 35 4b 3c 19 ac cf 3a 54 10 b6 3b b0 6a 0e 3b
       0.012402854 0.0015844136 0.0055561457 0.0021731071
000260 aa 91 b0 bb 83 a5 97 3b 4f 4b a5 3b be 33 42 3b
       -0.0053884583 0.004627885 0.005044378 0.0029632892
000270 a2 b0 7f 3b f9 13 96 3b 11 bb 2d 3b 4e fb 50 3b
       0.0039015193 0.0045800176 0.0026509205 0.003188807
000280 b6 23 82 3b d1 2f 50 3b 2c b5 d2 bb ef d5 ef bb
       0.003971542 0.0031766782 -0.006430289 -0.007319204
000290 33 1f 77 bc c9 9b 4b bc 30 08 38 bc 8d 98 37 bc
       -0.015083122 -0.012427279 -0.011232421 -0.0112058045
0002a0 f7 fb 1a bc e5 5e 89 3a 07 93 96 bb 5f 6f 47 3c
       -0.009459487 0.0010480551 -0.0045951637 0.012172549
0002b0 55 ba 29 3b 83 58 83 3a 6a 1e 99 3c b1 73 49 bc
       0.0025898416 0.0010020885 0.01869126 -0.012295649
0002c0 56 66 b8 3b 68 81 d0 39 49 17 ca b8 04 20 79 3c
       0.005627434 0.00039769267 -9.636448e-05 0.015205387
0002d0 22 78 69 bc 46 2e cc bc f8 bf b3 bc 46 9d 15 bd
       -0.014249833 -0.024924409 -0.021942124 -0.03652694
0002e0 61 e1 7e bd 4c 5d dc bc 6c b5 db bc cc c4 35 bd
       -0.062226657 -0.026899956 -0.026819907 -0.044377133
0002f0 1f ac b5 3b 26 6c 00 80 d5 2f 01 80 5a 44 01 80
       0.0055442 -3.8796e-41 -1.08994e-40 -1.16355e-40
000300 bd e2 01 00 af d8 00 00 15 de 01 80 82 43 00 00
       1.73174e-40 7.7731e-41 -1.71504e-40 2.4217e-41
000310 c2 e5 01 80 07 7b 00 00 da 0f af 3d 05 30 14 bd
       -1.74257e-40 4.4134e-41 0.08547945 -0.036178607
000320 3c 02 85 bd d1 11 48 3e 0d a6 93 bd bd a1 96 bd
       -0.06494567 0.19538046 -0.07209406 -0.07355068
000330 42 33 dd 3d 8b e1 9c bd 81 c1 27 bd 5d 17 8e bd
       0.10800792 -0.076602064 -0.040956024 -0.0693805
000340 0a 4f 88 3c a7 55 14 3d 34 a5 19 be 14 2a fd 3c
       0.016639251 0.036214497 -0.15004426 0.030903853
000350 4b c0 84 3d c3 02 9f bd 65 79 fd 3c 5f a3 38 3d
       0.064819895 -0.07764199 0.030941674 0.045077678
000360 24 f6 5d bc c4 3a 4c 3c c4 a4 a4 ba db 17 2b bc
       -0.013547454 0.012465183 -0.0012561311 -0.010442699
000370 18 53 cf 3c 9f 25 12 bb f8 b1 b5 bb 1d 08 47 bb
       0.025308177 -0.0022300256 -0.005544897 -0.0030369826
000380 74 58 07 bc 1e 1d c9 bb d5 75 3b bc c5 9a 51 bc
       -0.008260835 -0.0061375042 -0.011441668 -0.012793248
000390 97 2b e2 3c dd d6 36 3d 03 7c fd 3a 39 2d 9f 3c
       0.027608676 0.044638503 0.0019339327 0.019430744
0003a0 13 8d d4 3c 66 5e ac ba 8a a7 72 3d 09 18 93 bd
       0.025946176 -0.0013150692 0.05924181 -0.07182319
0003b0 6d de 50 3b 98 e8 80 3d 86 9f 91 bd bc 11 8b bb
       0.0031870857 0.06294364 -0.07110505 -0.0042440575
0003c0 e0 3d 6f 3c 22 62 84 bc e0 88 45 ba b0 2d 11 3d
       0.0146021545 -0.016160075 -0.00075353496 0.03544396
0003d0 c3 75 94 3d 32 31 a9 3c 73 89 07 3d 96 54 48 3e
       0.07249024 0.020653341 0.033090066 0.19563517
0003e0 bf 46 41 3d e6 58 14 3d 2a 79 b4 3d 45 81 cd 3c
       0.04718661 0.036217593 0.08812173 0.025086055
0003f0 83 a2 19 bd e2 5e bb bc a7 6f ad 3c 40 6b 60 bd
       -0.0375085 -0.022872392 0.021171404 -0.05478978

encoder.level2_0.d1.conv.0.weight f4 [16, 1, 3, 1]
000000 28 ea 13 c0 f7 2d 3f 3c cf d6 c1 be 5d 31 fb 3f
       -2.3111668 0.011668674 -0.37859198 1.962444
000010 37 42 9e 3f 4c e4 86 3e cf 54 18 3b 7f 26 21 bf
       1.2363957 0.26346052 0.002324391 -0.62949365
000020 27 52 25 3f c3 b8 c5 be a5 3b 98 be f4 e5 47 3f
       0.6457848 -0.38617525 -0.29733005 0.78085256
000030 7f 40 3b bd b7 60 27 3f d5 5e 1b bf 5a 5a 14 bf
       -0.045715805 0.6538195 -0.6069158 -0.57950366
000040 d8 ca 34 3f 7b 3c 05 be 63 ab f4 be 00 a6 85 be
       0.70622015 -0.13011353 -0.47787008 -0.2610321
000050 12 fe 3b 3f cd 73 4a 3e 42 3c 2f c0 72 71 fa bd
       0.73434556 0.19770737 -2.7380528 -0.12228669
000060 88 a7 0d bd 5f 80 2e 3f 17 e7 2f bf 09 6f ee 3e
       -0.0345836 0.6816463 -0.6871199 0.46569088
000070 41 f2 28 3e 1b 35 76 bf df 59 95 bf af f7 4d bf
       0.16498663 -0.9617478 -1.1668051 -0.8045606
000080 a3 16 b2 be d5 dd 34 bf ff 1c 22 3e f0 f6 10 3f
       -0.34782895 -0.7065099 0.15831374 0.56626797
000090 fc cc 4c c0 04 31 f2 3d 04 1d 18 3c 51 4a 2a bf
       -3.2000113 0.11825755 0.009284262 -0.6651965
0000a0 25 cc 35 3f b3 5d 7c bd b9 92 d5 bb c7 1f 23 3f
       0.71014625 -0.061612796 -0.006517735 0.63720363
0000b0 9e 3f 21 bf 3e c6 43 3c 93 e6 31 3d 62 ba 11 c0
       -0.629877 0.01194912 0.043432783 -2.277001

encoder.level2_0.d1.conv.1.weight f4 [16]
000000 fa 72 03 3d 0a 38 32 3e 6b 70 3f 3e 15 c3 29 3e
       0.032092072 0.1740419 0.18695228 0.16578324
000010 59 09 41 3e e7 7a a4 3e 6e 4a cd 3e 1d 4d 8a 3e
       0.18851222 0.32125017 0.40095848 0.27011958
000020 88 0e 7e 3e db 66 2e 3e 13 d8 80 3e fb 21 d2 3e
       0.2481023 0.17031424 0.25164852 0.4104155
000030 83 17 db 3e 89 e4 78 3e 89 ec d8 3e 44 7f d8 3e
       0.42791376 0.24305929 0.42367962 0.42284596

encoder.level2_0.d1.conv.1.bias f4 [16]
000000 8b 35 24 bd 62 c9 fe bc e8 d3 c8 bb 30 7f 95 3e
       -0.040090125 -0.031101886 -0.006128777 0.291986
000010 50 03 ff bb 62 56 bf 3a 42 c3 2c 3e 0c 94 15 3e
       -0.0077823773 0.0014597888 0.1687136 0.14607257
000020 6f ad a9 3b 9e f2 76 3e e1 1a a8 3a 02 a9 2e 3e
       0.0051781456 0.24115989 0.0012825393 0.17056659
000030 4d 91 3e bc 49 e6 a1 39 6c 30 11 bb 5a f2 ee bb
       -0.011631322 0.0003087989 -0.0022154106 -0.007292074

encoder.level2_0.d1.conv.1.running_mean f4 [16]
000000 ea 53 8a ba 1c 8d b4 3e 7a 3d 76 ba 12 bb 19 bd
       -0.0010553573 0.35263908 -0.0009393316 -0.03753192
000010 9d 70 c2 3a 9f 5b 6d 39 01 4c 8d ba 87 61 10 3d
       0.0014834587 0.00022636213 -0.0010780097 0.03524926
000020 0f a1 95 ba 56 b5 5d 3e b5 16 86 bb ce 5b 91 bb
       -0.0011415797 0.21651205 -0.0040920624 -0.004435993
000030 c6 fe 8a bd d9 34 58 39 12 ee 23 39 9f 2d 0e 3d
       -0.067868754 0.00020619053 0.0001563358 0.034711476

encoder.level2_0.d1.conv.1.running_var f4 [16]
000000 e6 ea 92 3e 9e da 1c 3d d3 a2 fa 3a 8b 8c 3b 3c
       0.28694838 0.038294427 0.0019122012 0.011447082
000010 ce b2 6e 3b f6 7e 25 3c fe e8 0d 3c 23 e4 34 3d
       0.0036422494 0.010101071 0.008661507 0.04416288
000020 ff 8c 17 3c cc cb cb 3c 77 f0 23 3d ca e7 53 3c
       0.009249925 0.024877451 0.040024247 0.012933681
000030 5f ab 12 3e 45 d1 1f 3c e9 54 f7 3b 7a a3 d8 3d
       0.14323185 0.009754484 0.007547964 0.10578056

encoder.level2_0.d1.conv.2.weight f4 [16]
000000 22 7c 21 3d d4 81 2d bf 7f 2c 5c bf 8a ac 53 3e
       0.039425023 -0.67776227 -0.86005396 0.20671287
000010 60 1c 7e bf 38 93 1b bf 0f 37 4e bf e2 33 4e 3f
       -0.99262047 -0.60771513 -0.8055276 0.80547917
000020 42 5e 66 bf 9d 6e 0d 3e d4 09 7b bf 68 f1 20 bf
       -0.89987576 0.13811727 -0.9806187 -0.62868357
000030 c1 97 65 bf 65 99 6c bf 27 23 83 bf 22 77 77 bf
       -0.89684683 -0.9242156 -1.0245103 -0.9666616

encoder.level2_0.d1.conv.3.weight f4 [16, 1, 1, 3]
000000 76 8c de bd 46 f7 83 3c 27 d1 9c 3b b0 73 1e c0
       -0.108666345 0.01610912 0.004785675 -2.475811
000010 3a 0f 20 bf 5a 5f 22 3f 03 66 b3 3e 3e aa b4 be
       -0.62523234 0.63426745 0.35038766 -0.35286134
000020 99 35 a4 bf f5 19 87 be 2c 70 67 3e f9 60 93 40
       -1.2828857 -0.2638699 0.22601384 4.6055875
000030 7a 3e 3d be e2 ae 04 be 4e 56 c5 3f 8a b9 e3 bd
       -0.18480864 -0.12957337 1.5416963 -0.11119373
000040 dc 63 20 be 85 7b b5 3f 48 d0 90 3e a5 20 11 bf
       -0.15663093 1.417832 0.28283906 -0.56690437
000050 7a 01 a8 bf 17 ca ed bd 83 d3 1b bf 48 dd 4f 3f
       -1.3125451 -0.11610811 -0.60869616 0.81197023
000060 e1 23 0d 40 88 d7 c6 3e 16 6c e6 bd cd 70 a0 be
       2.2053149 0.38836312 -0.112510845 -0.3133606
000070 05 37 8b be 19 da bc 3f 6d 12 98 be 76 4c 13 3f
       -0.27190414 1.4754058 -0.29701558 0.57538545
000080 7f d6 bc 3f 9f ac 89 3e e0 7c 4a bf 59 ca 7f bf
       1.4752959 0.26889512 -0.79096794 -0.99918133
000090 b3 0e d8 3d 9a ba bd be 59 97 25 c0 0c f0 0f 3d
       0.10549679 -0.37056428 -2.5873625 0.035141036
0000a0 3f 42 37 bf 5f c4 af bf c1 df 03 40 bd 97 e6 bd
       -0.7158546 -1.3731803 2.0605319 -0.112594105
0000b0 06 06 f0 bc a9 14 8f 3e 28 92 fd bd aa 9f de bf
       -0.029299747 0.2794545 -0.12381393 -1.7392476

encoder.level2_0.d1.conv.4.weight f4 [16]
000000 75 b0 61 c1 a2 f6 8c 3e 38 b3 d5 3e ff a7 a9 3e
       -14.10558 0.27531916 0.41738296 0.33135983
000010 e1 70 8b 3e a0 9c 9c 3e c1 8a e7 3e 86 c9 b5 3e
       0.27234557 0.30588245 0.45223048 0.35505313
000020 b2 b6 e3 3e 51 d6 b3 3e c2 56 80 3e dc a0 e3 3e
       0.44475323 0.35124448 0.2506619 0.44458663
000030 27 ae f3 3e ec f9 ee 3e d9 08 f3 3e b9 dc fc 3e
       0.47593805 0.4667505 0.47467688 0.49387148

encoder.level2_0.d1.conv.4.bias f4 [16]
000000 24 37 5a 3d a6 dc f5 bc 72 49 be bd fb 63 d7 3e
       0.053275242 -0.03001244 -0.09291352 0.42068467
000010 65 2b b2 3e d8 97 1d 3f 72 6f 51 be 5b 6c ad bd
       0.34798732 0.6155982 -0.2045267 -0.08467933
000020 c0 f8 95 3e 15 c5 ff bd b6 fd 2c 3e 0c 0d 81 be
       0.29291344 -0.12488762 0.16893658 -0.25205266
000030 34 04 56 bd 67 03 6f 3e 9d 38 8e 3e 0a 6b c9 be
       -0.052250102 0.23341142 0.27777568 -0.39339477

encoder.level2_0.d1.conv.4.running_mean f4 [16]
000000 40 38 12 39 12 c7 59 be 6e a3 00 be f4 18 ad 3f
       0.000139446 -0.21267346 -0.12562343 1.352324
000010 c8 10 05 3e fa 2e 35 3e f2 cb eb be 67 57 59 3c
       0.12994683 0.17693701 -0.46054035 0.013265467
000020 11 22 b0 3e 8b c6 60 3e 0b 89 79 3e b9 24 da be
       0.3440099 0.21950738 0.24368684 -0.42606142
000030 4d da 34 bf 20 bb 8b be ec 20 e9 3e c0 21 ae be
       -0.706456 -0.27291203 0.4553293 -0.34010124

encoder.level2_0.d1.conv.4.running_var f4 [16]
000000 90 8a 86 32 b8 20 c7 3d c6 66 1d 3d f3 e2 f3 3e
       1.5662664e-08 0.097230375 0.03842809 0.47634086
000010 85 29 3b 3d ae 1e 9a 3d a6 ed 64 3e e9 9d 44 3d
       0.045693893 0.07525383 0.2235628 0.048002157
000020 ce dc 4c 3e 01 9e f3 3c 5e 53 e9 3d 6f 38 46 3e
       0.20006105 0.029738428 0.11392854 0.19357465
000030 a1 5a 48 3f 36 e4 e8 3d 8b 57 fc 3e 54 c3 b9 3e
       0.7826329 0.11371653 0.4928554 0.36281836

encoder.level2_0.d1.conv.5.weight f4 [16, 1, 3, 3]
000000 a7 41 bc bd 8a 8d 90 3d c4 a9 be be 1b 39 db 3c
       -0.0919221 0.070582464 -0.37238896 0.026760628
000010 13 29 54 be ee c5 9e 3f 11 2a b5 bd b1 8d b7 3d
       -0.20718794 1.2404153 -0.08845914 0.08962572
000020 94 6f d0 be 82 fc 84 3d 76 37 19 3e 7e 66 b2 3e
       -0.40710127 0.064934745 0.14962563 0.3484382
000030 cf 8b a9 3b 59 77 60 be d9 f3 bc bf 88 2c 3a 3d
       0.005174137 -0.21920528 -1.4761916 0.045452625
000040 a7 76 2e 3e 57 41 2b 3f 6c ec 44 3e e3 dd dd 3f
       0.1703745 0.66896576 0.19230813 1.733334
000050 6a e3 2d be f0 4e 3f bc 03 fc 84 3d 1f 3d 60 3b
       -0.16981283 -0.011676535 0.0649338 0.0034216119
000060 06 c3 e4 3c dc ba 95 3d 1f 65 a2 bc c4 ce d7 3d
       0.027925026 0.07311031 -0.019823609 0.10537484
000070 0d e4 d4 3f 7b 07 97 3d 0a 25 6c bd 9f 0e 6b bf
       1.6632096 0.07374474 -0.05765251 -0.91819185
000080 a9 64 7a bb 6a 33 65 bc a5 b1 00 be c7 a6 5b bb
       -0.003820697 -0.013989309 -0.12567766 -0.0033516155
000090 13 a8 8f 3e 1a aa f2 3f 50 1d f3 bd 54 64 a0 bb
       0.28057918 1.8958161 -0.11870825 -0.0048947725
0000a0 b2 21 94 3e 49 f7 c4 bd 2e a2 bf 3c 0b 42 a3 3d
       0.28931957 -0.096174784 0.023392763 0.07971581
0000b0 3c 5e ee b9 70 26 db 3d cc f6 79 3f 32 bd 52 bd
       -0.00045465108 0.10700691 0.9764221 -0.051449962
0000c0 2f 57 29 3e 2a 0c f5 3f bc 99 1b be c8 7d 86 3d
       0.16537164 1.9144337 -0.15195364 0.065669596
0000d0 32 0e 46 3d 3a f1 49 3d 75 92 e8 3c 83 4b af bf
       0.04835338 0.049302317 0.028390149 -1.3694919
0000e0 33 e6 9f 3d 04 d7 26 3e ca e7 6f 3f 67 be 09 3e
       0.07807579 0.1629296 0.9371306 0.13451539
0000f0 e4 29 f5 3c 2c 0f 8c 3e 8d 92 8e bc 2a e2 38 be
       0.029927202 0.27355325 -0.017403865 -0.18055025
000100 af ba 80 c0 75 19 9e 3e b8 5c b9 3c 38 73 d9 3d
       -4.0227885 0.30878797 0.02262722 0.10617679
000110 7e eb 2e 3d af c9 78 ba 50 3f 1a 3c 4b 40 ed bc
       0.04270505 -0.00094905024 0.009414509 -0.028961321
000120 87 10 1c bc fa cc 8d bb dd bc ff 3f e0 99 e8 bb
       -0.009525425 -0.0043274136 1.9979511 -0.0070984215
000130 51 ba ab 3b 42 64 8e 3e d4 01 50 3c 3a 8c 87 3c
       0.0052407165 0.27810866 0.012695748 0.016546357
000140 98 04 7e bb 24 5d 91 be c5 e8 bf bf bf b6 2c 3e
       -0.0038760062 -0.28391373 -1.4992911 0.16866587
000150 11 42 6d 3e 51 4d 5d 3f be ec 8f bd b7 06 a1 3d
       0.23169734 0.864461 -0.07027577 0.07862609
000160 74 7c 60 3d 1a b0 ef 3c f7 0c a6 3d f3 3f c9 3e
       0.054806188 0.029258776 0.081079416 0.39306602
000170 c3 2e 9b 3d 0d 34 6c 3e 10 77 92 3f 76 7e 04 3e
       0.075772785 0.23066731 1.1442585 0.12938866
000180 6c 53 1b bc fe cd 9a bd ab d8 a6 3c 00 02 6f be
       -0.009480339 -0.07558821 0.020366987 -0.23340607
000190 c8 3e 99 bf 15 f4 cc bd 3b d9 42 bc fb 99 ab 3f
       -1.1972284 -0.100074925 -0.011892612 1.3406366
0001a0 3c a3 bb bd ae 3a a4 bb 90 0b 86 3e 76 ca 97 bd
       -0.09161994 -0.005011878 0.26180696 -0.07411663
0001b0 bd 4f 8d bc 62 3e 89 3d 49 ea 1b bd 94 d7 24 3d
       -0.017249936 0.06701352 -0.03806523 0.040244654
0001c0 16 92 02 40 a3 10 b1 3c 89 d5 5f ba e2 5b e0 3d
       2.0401664 0.021614378 -0.0008538594 0.10955025
0001d0 75 49 31 bd d3 a2 11 3c 23 cd ab be 81 72 01 3d
       -0.043282945 0.008888918 -0.33554944 0.03160334
0001e0 0a f7 85 3d 4c 93 f6 bf 15 88 36 3d c0 ff 84 3c
       0.065412596 -1.9263701 0.04456337 0.016235232
0001f0 e7 65 fa 3d a1 76 6c 3c 93 0d 1a 3d 69 81 27 3d
       0.122264676 0.01443258 0.0376106 0.0408949
000200 15 20 cd bf d9 51 45 3d 96 a3 6f 3c 58 44 c9 bf
       -1.6025416 0.04817376 0.014626404 -1.5723982
000210 04 f5 37 bc 1e b1 d0 bb 88 bf b1 3d 2e 7e 98 be
       -0.01122785 -0.0063687703 0.0867911 -0.29783767
000220 b9 4f 1b c0 e2 60 c1 3d 42 2b 4d 3b aa 00 b9 bc
       -2.426741 0.09442307 0.0031306301 -0.022583324
000230 fe 17 e1 bb f2 5e 64 3b 72 91 93 39 f3 2d 3f 3b
       -0.006869315 0.003484663 0.0002814639 0.0029171675

encoder.level2_0.d1.conv.6.weight f4 [16, 16, 1, 1]
000000 46 70 b5 bc 17 35 de bc 8a 86 f2 bc d2 02 0d 3d
       -0.022148263 -0.027124925 -0.029605169 0.034426518
000010 6c 33 f3 bc b3 93 9f bd f4 1a 29 3e 12 fd 32 bc
       -0.029687606 -0.07791843 0.16514188 -0.0109245945
000020 0a b8 b7 3c aa a5 17 3c 8e 02 16 3d da 5f 2f be
       0.022426624 0.009255806 0.03662353 -0.17126408
000030 b1 94 99 bc 2c ef 1a 3c 4d ba 9d 3c 46 8b 7a 3b
       -0.01874766 0.009456437 0.019253874 0.0038229986
000040 04 2c a5 3d b8 97 6d bb d3 0c 58 bd 15 3e 95 bd
       0.08065036 -0.0036253762 -0.052746605 -0.07287232
000050 2e 19 d2 3c c0 f2 70 bd 2f 19 f0 bd bb 3f 18 3b
       0.025646772 -0.058825254 -0.117235534 0.0023231346
000060 c0 8b d6 3b 67 a7 1d 3d f5 87 a3 3c ad a6 ef 3d
       0.006547421 0.038489725 0.01996229 0.11701713
000070 f8 1d 6b bb c7 18 c7 bb 53 92 54 bb 77 cd 97 bc
       -0.0035876017 -0.0060759517 -0.003243585 -0.01853059
000080 8a 08 b8 3d 39 c4 0b 3e 45 69 7a ba 76 f9 2c bc
       0.08986004 0.13649072 -0.00095524295 -0.010557523
000090 09 ab aa bb cc 55 85 3d 75 94 81 3c 46 26 13 3c
       -0.0052083773 0.06510505 0.01581786 0.008981293
0000a0 dc b6 34 be ab 7c ea 3c 00 68 41 3e b0 23 3a bc
       -0.1764788 0.0286239 0.18887329 -0.011361048
0000b0 48 53 d7 3b 64 c7 58 be ad 10 01 bd 6b 43 0d 3b
       0.006571207 -0.21169811 -0.031510044 0.0021555077
0000c0 d9 1d 40 bc 8a e7 3a 3c 0b e5 fd 3c 50 4b 5e be
       -0.011725866 0.011407742 0.030993005 -0.21708417
0000d0 03 16 15 bd 4a 19 ad bc 43 47 2d bc 35 56 96 ba
       -0.036397945 -0.021130223 -0.010576072 -0.0011469783
0000e0 9f 8b 28 bc 41 62 d6 3b 24 ba 92 3d b2 cb 1e b9
       -0.0102871945 0.0065424745 0.0716441 -0.00015143937
0000f0 09 2b 02 3c 90 6a 15 bb 5b 9b f2 3c c7 ba fb bc
       0.007944831 -0.0022799112 0.029615095 -0.03072871
000100 87 34 b7 bc cf c8 82 3a b0 03 0c be a1 eb ec 3c
       -0.022363914 0.0009978059 -0.13673282 0.02892095
000110 2b 4e 3c 3e fd b0 b7 3d 0a d2 b3 3d 56 c2 10 3c
       0.18389194 0.08969305 0.08780296 0.008835396
000120 41 48 98 ba 3c 49 3a bd f4 33 f1 bd b6 0b ab bd
       -0.0011618213 -0.045479998 -0.117774874 -0.08351843
000130 b0 8e a2 bc 35 eb 71 bc 03 72 b1 bd ed 6c 3c 3d
       -0.01984343 -0.01476555 -0.08664324 0.046002317
000140 d2 be a9 3c a9 e3 cd 3b af 56 6a 3c 3b 86 f1 3d
       0.020720873 0.0062832427 0.014302894 0.117931806
000150 86 55 c8 bc 2f 3a 55 bd fc 4b e6 bc 3c b4 d8 bb
       -0.024454843 -0.05205744 -0.028112404 -0.0066132825
000160 07 7d fd bc 63 2e a0 3d 02 67 be 3c 20 37 fe 3c
       -0.030943407 0.078213476 0.023242477 0.031032145
000170 ee f4 48 bd af 9b 39 bd 82 e7 90 3c 3d 0c c6 3c
       -0.04906171 -0.045314487 0.017688517 0.024175758
000180 4f 1d 02 bb 6a 18 b6 bc 6e 18 d9 ba 6e 3c 0f bc
       -0.0019853895 -0.022228438 -0.0016563067 -0.008742435
000190 da a7 52 bc b0 70 1f 3c 2d 11 66 bc 2c 25 72 3e
       -0.012857402 0.009731457 -0.014042181 0.23646992
0001a0 b9 6c a4 ba 8d bb 2d bc 00 fd 78 3c 7c 37 0a 3c
       -0.0012544609 -0.010603798 0.015197039 0.00843608
0001b0 11 0d 0f ba 94 e1 7d bb 66 9c 24 3c 07 4f 0d bc
       -0.0005456964 -0.0038739191 0.010047054 -0.008624799
0001c0 1b d7 fc bc 37 ec 7c 3a ad 4b c3 3c 63 51 cb 3a
       -0.030864289 0.0009648236 0.023839796 0.0015511926
0001d0 70 42 f7 3c d5 1c 83 3b bf 3c d1 bc 90 ca 3b 3b
       0.030183047 0.00400124 -0.025541661 0.0028654672
0001e0 78 14 21 be 87 5a 3b bc 81 b7 75 bb 74 de f6 3c
       -0.15730464 -0.011435158 -0.003749341 0.03013537
0001f0 89 17 ad 3d 7a fa 21 be 2e db 48 3c fc a7 04 be
       0.084517546 -0.15818205 0.012259288 -0.12954706
000200 0a 5a b8 3d 7d 7f fa 3c f9 a3 b6 3d 1b 81 6d 3c
       0.090015486 0.03057837 0.08917994 0.014496113
000210 ee cd be bd 49 0e aa bd 45 33 b4 3d 5d 7e 3c 3b
       -0.09316622 -0.08303506 0.087988414 0.0028761842
000220 4c d3 c1 3b f1 1b ee 3c fa fd 12 bd f2 5a c6 bd
       0.005915081 0.029066058 -0.035886742 -0.09685315
000230 10 08 d3 3d 4f 0b 5d 3c 10 fa ce 3c c1 e1 16 be
       0.10304272 0.013491466 0.025265723 -0.14734556
000240 f7 08 8d bc 3d bd 08 bc e9 98 10 bc 5a 0c 51 bc
       -0.017216189 -0.008345899 -0.008825519 -0.0127592925
000250 81 f9 90 bc 5a c5 24 be 40 e5 a8 bb c1 40 eb 3a
       -0.017697098 -0.16090909 -0.005154282 0.0017948375
000260 8a 6d fb bb 33 0d d2 bc 00 f2 98 bb 0d 1d 88 3c
       -0.00767297 -0.02564106 -0.0046675205 0.016615415
000270 0e 62 6b ba dd ff 6c ba c9 9e 71 3e 77 d5 ef 3b
       -0.000897915 -0.0009040812 0.23595728 0.007319148
000280 76 62 4e bb b8 3e b0 bb 25 fa ae 3a 1f 0d 12 bc
       -0.0031491793 -0.0053785704 0.0013349695 -0.008914261
000290 58 e7 28 bb 0d 8e bf b9 1e ac 5a bc 4a 87 2a 3c
       -0.0025772657 -0.00036536195 -0.0133467 0.010408232
0002a0 52 d4 90 3c ab 9e 3c bb d1 e5 18 3c 93 97 46 bc
       0.017679367 -0.0028781097 0.009332136 -0.012121099
0002b0 e5 71 10 3d 7b 3c 83 3c 69 c4 e0 bb 6e f0 f2 bc
       0.03526487 0.01602005 -0.0068593514 -0.029655661
0002c0 4b b5 48 3b a1 a9 dc ba 14 c6 82 3d a6 ca 7e 3c
       0.0030625637 -0.0016835221 0.06385437 0.015551245
0002d0 af 60 03 bd 13 23 98 bd 0c 68 f0 3d 49 a6 25 3c
       -0.032074627 -0.07428565 0.11738595 0.010110446
0002e0 47 d3 f0 bd 6c d9 6f bc 38 d3 22 bd 26 8b 09 be
       -0.11759048 -0.01463924 -0.039752215 -0.13431987
0002f0 8d f7 38 3c 3d b9 c3 bd db d6 1e 3d 4a 80 e5 bb
       0.011289489 -0.09556816 0.03877912 -0.0070038186
000300 5f 2e 31 bd 45 d4 33 3d f7 df 3d be 8f 92 a1 3b
       -0.043257114 0.043903608 -0.18542467 0.004930801
000310 0d 83 69 3d 48 e2 db bd c4 ac 66 3d 37 19 11 bb
       0.057009745 -0.10736519 0.056317106 -0.0022140273
000320 4d bf 99 3b 9a ee 53 3c a7 d7 f2 3c 43 b0 f6 bc
       0.0046919943 0.012935305 0.029643847 -0.030113345
000330 71 4a 12 3d 25 46 ba bb 77 b7 34 3e b2 5c 57 bc
       0.035715524 -0.0056846314 0.17648111 -0.013144659
000340 a3 18 9c bc fe 23 6b bc 18 96 a6 3a 75 0a 8a bb
       -0.019054716 -0.014351843 0.0012709526 -0.0042126724
000350 8d 2a e1 3b b5 e2 bb bc 51 0e ac 3c 1a a8 5e ba
       0.0068715275 -0.02293525 0.02100292 -0.0008493677
000360 0e bb 87 3d b7 7d 18 3d dc 1d 0d bd 0b 33 93 bc
       0.06627475 0.037229266 -0.034452304 -0.017968675
000370 4b 65 98 3e 58 27 85 3d 20 7e 8f bd 6f 9d 86 be
       0.2976478 0.06501645 -0.07006478 -0.26291987
000380 dd c4 2b bc c3 18 31 bc de 7f 62 3d 12 55 a0 bc
       -0.010483948 -0.010809126 0.055297725 -0.019571815
000390 5b bb 8a bd 96 47 65 bd 4c 6d 61 bd ed 50 73 bc
       -0.067740165 -0.055976473 -0.055035874 -0.014850837
0003a0 c7 a0 a0 3c 8c 80 c3 bd d9 6a 14 3d d2 e9 31 3d
       0.019607915 -0.09546003 0.03623471 0.04343588
0003b0 cb 89 99 3d d5 4d c7 3c 3f 2a 63 3c 21 20 b7 bd
       0.07496985 0.024329105 0.013865053 -0.08941675
0003c0 f2 56 56 bd e3 10 bf bb 35 6c cd bc 83 71 8c 3d
       -0.05232901 -0.0058308705 -0.025076011 0.06857588
0003d0 1b 66 b8 3b ef 55 2f bd 01 38 a7 bd 76 f8 2f 3b
       0.0056274063 -0.042806562 -0.08164979 0.0026850975
0003e0 a4 a4 0b 3d 58 d3 33 be b7 20 d3 3c cd d2 ba 3d
       0.03409256 -0.1756109 0.025772436 0.09122238
0003f0 7f eb dc 38 65 09 af 3c 35 4a ae 3c c7 76 c4 bc
       0.00010534282 0.021366784 0.021275619 -0.023982419

encoder.level2_0.d2.conv.0.weight f4 [16, 1, 5, 1]
000000 29 f8 1f bc ec cc 80 c0 71 30 cb bd 21 09 30 3e
       -0.009763756 -4.025015 -0.09921349 0.17190982
000010 9f a6 84 bd 38 91 d4 3d 4e ac 92 40 4b 76 d7 3d
       -0.06477093 0.10379261 4.5835333 0.105206095
000020 a0 36 88 3b 53 0d ac bd 59 d8 63 bc 87 0f 6f 3c
       0.0041569024 -0.08400979 -0.013906562 0.014591104
000030 c9 c0 41 bd 4b 4e 50 bf 31 fc 59 3f f6 7f be 3e
       -0.047302995 -0.81369466 0.8515044 0.37207
000040 f6 df d7 bf 1f 2a cb 3e 2c e1 37 bd 2d ea c8 3d
       -1.6865222 0.39680573 -0.044892475 0.098102905
000050 ed c6 df 3e 6b ec 4c 40 c7 8a 65 3e bb 64 a0 bc
       0.43706456 3.2019298 0.2241622 -0.019579282
000060 9e d0 de bd 92 70 94 3d 5f 7e 06 c0 17 a9 df 3e
       -0.10879634 0.072480336 -2.101463 0.43683693
000070 bc a9 8e 3c d8 d4 22 3d 1c d4 94 3f 53 a4 18 bf
       0.01741492 0.039753765 1.1627231 -0.5962574
000080 44 12 7c 3f 3a 55 db 3e 10 82 58 be d2 33 a8 bf
       0.9846537 0.4283846 -0.21143365 -1.3140814
000090 35 0e 56 be 18 61 32 3f 67 94 ea 3d 31 02 b7 3e
       -0.20903857 0.69679403 0.11454087 0.3574386
0000a0 80 70 e4 be dd dc 07 c0 f8 d3 8e bd 8c 9c 42 bd
       -0.4461708 -2.1228554 -0.069740236 -0.047512576
0000b0 79 bf 24 be 1f f3 a0 be e4 09 f5 3f 20 cd 89 be
       -0.16088666 -0.31435487 1.9143643 -0.2691431
0000c0 0b d5 a8 bd 93 bb 28 3e 2a 40 ce 3e 95 10 ab bf
       -0.0824376 0.16477804 0.40283328 -1.3364435
0000d0 85 2e 80 3f 59 9a 85 bd 28 84 14 3d 9a 4d 68 3e
       1.0014197 -0.0652358 0.036258847 0.22685853
0000e0 93 7e cf bf fd b7 af bc a9 93 48 3e cb 10 96 3e
       -1.6210502 -0.021450037 0.19587578 0.29309687
0000f0 b0 1b 7d bf bf 52 85 be 0e ba 67 3f 42 d7 11 be
       -0.9887037 -0.26039693 0.9051827 -0.1424227
000100 40 a5 0c 3e b2 c5 8c 3d 46 e5 1e 3d 80 0b 6c 3d
       0.13734913 0.06873645 0.03879287 0.057628155
000110 ac 36 d4 be 2f 97 6f c0 79 ab b8 3d 87 54 a6 bf
       -0.4144796 -3.7436025 0.09017081 -1.2994546
000120 5b 43 b2 bf 62 01 19 bd 9a da 0f 3e b2 4d 08 3e
       -1.3926805 -0.037354834 0.14048234 0.13310888
000130 cc 7e a1 bf 28 7c 97 3e 9e c7 38 be 47 e5 3d 3c
       -1.261682 0.2958691 -0.18044898 0.0115903085

encoder.level2_0.d2.conv.1.weight f4 [16]
000000 44 75 fc 3e ef 09 d1 3d ce 9e 44 3e f5 6f bb 3e
       0.49308217 0.10206973 0.19201204 0.36608854
000010 29 91 0e 3e a6 4b ae 3e 09 a5 63 3e 2f c8 da 3d
       0.13922562 0.3404209 0.22230925 0.10682713
000020 da 88 5f 3e 6a 04 62 3e 0b 54 fb 3d f1 ee c3 3b
       0.21829548 0.22071996 0.12271889 0.005979412
000030 7d f6 a4 3d a3 0f 83 3e 69 dc 98 3e bf 86 8f 3c
       0.080548264 0.25597867 0.2985566 0.017520307

encoder.level2_0.d2.conv.1.bias f4 [16]
000000 83 0e f8 bd 4f d3 c0 3e 62 dc 3f bc 38 03 9e be
       -0.12112143 0.37661216 -0.011710258 -0.3086183
000010 b7 0a fe 3e 46 14 ff bd 4c b6 92 be 63 76 9c bc
       0.4961755 -0.12455039 -0.28654706 -0.01909942
000020 89 87 8c 3e 9f ee af 3e 0d 3a 86 3e 12 7a eb ba
       0.27447155 0.3436174 0.26216164 -0.0017965457
000030 95 a8 cf 3d 50 70 89 3e 6c 9b ab be 6e 42 de be
       0.10139576 0.268435 -0.33517015 -0.43410057

encoder.level2_0.d2.conv.1.running_mean f4 [16]
000000 4b a7 01 bb 05 2d f5 3e 01 e3 36 3a b1 68 ab 3e
       -0.0019783552 0.4788591 0.0006976575 0.3347831
000010 3c 2b 53 3f 1f be 84 bd 24 aa 76 3e 79 fe 90 3b
       0.82487845 -0.06481575 0.24088341 0.0044248668
000020 e9 4f cf bd 96 e8 6c bf 4c 6d 92 38 7c 96 52 3e
       -0.101226635 -0.925424 6.982181e-05 0.20565218
000030 5f e4 f1 bb cd d5 92 3d fe e5 b6 bd 0b 61 8a 3c
       -0.0073819603 0.071696855 -0.08930586 0.016891977

encoder.level2_0.d2.conv.1.running_var f4 [16]
000000 1f c0 33 3f 97 0b bb 3d ba 14 5a 3b ce c3 a1 3d
       0.7021503 0.0913307 0.0033276514 0.07898675
000010 bb 8c 4a 3f 0c 68 b3 3e ef 4c 83 3e 82 91 60 3c
       0.7912099 0.3504032 0.25644633 0.013706567
000020 a1 49 18 3e 21 66 13 3e 07 95 38 3c 96 ad 0a 3e
       0.14871837 0.14394428 0.011266 0.1354278
000030 e9 bb d7 3c b6 e3 d7 3e 97 77 16 3f 7a 71 3e 3d
       0.02633472 0.42165917 0.5877623 0.04649494

encoder.level2_0.d2.conv.2.weight f4 [16]
000000 27 5e e6 3d 98 dd 1f 3e 81 bb 43 bf 75 14 16 3f
       0.11248427 0.15611875 -0.76457983 0.58624965
000010 98 40 c5 bc 61 11 1d 3f fb de 0e be e8 dd c5 be
       -0.024078652 0.61354643 -0.13952248 -0.38645864
000020 82 29 ca 3e 87 db fd 3e 81 b9 9d 3e 76 2f 5c 3f
       0.39484793 0.4958155 0.3080559 0.8600992
000030 9a e7 d5 3b 2f c2 95 3e 0f 0d df 3c 21 38 aa 3e
       0.006527853 0.29249713 0.027227907 0.33245948

encoder.level2_0.d2.conv.3.weight f4 [16, 1, 1, 5]
000000 a9 4f 65 bd 9a bf 06 3d 48 62 04 bd 15 9a 85 bf
       -0.055984173 0.03289757 -0.03232029 -1.0437647
000010 b3 21 97 3f a6 f2 77 bf af bf 2b 3f 95 75 54 3e
       1.1807159 -0.9685463 0.6708936 0.20747979
000020 de 19 13 3d 15 a5 d7 3b 24 1e f7 bd 88 51 91 3e
       0.03591334 0.0065809586 -0.12066296 0.28382516
000030 0c 80 9a 3f 6c 5d 7c 3f 22 e0 8e 3f 83 7b 09 3d
       1.2070327 0.9858005 1.116215 0.033565056
000040 87 a0 19 3d 1b c9 99 3e 81 f3 9b bf 50 7e de 3e
       0.037506606 0.30036244 -1.2183686 0.43455744
000050 0a 40 48 3f b3 77 5f bf 4f 37 c1 3d ea 7e 65 bc
       0.78222716 -0.8729202 0.094343774 -0.014007309
000060 db e8 31 3c 0f ad 8f bf 43 a1 fe 3e e8 5e a6 3e
       0.01085874 -1.1224688 0.49732408 0.32494283
000070 58 7b 3a 3e dc ba dc 3d 4d 88 06 3f e2 b8 d0 3e
       0.18211114 0.10777828 0.5255173 0.40766054
000080 12 10 b2 3f 75 4a 1a 40 47 6b d1 bd a9 d6 7a 3f
       1.3911154 2.4107945 -0.1022554 0.97983795
000090 70 8d fa be be e1 1d 3f 61 8d 94 3e a5 8c c1 3f
       -0.48936033 0.6167258 0.29014114 1.5121046
0000a0 91 52 2b 3e 86 b8 60 3e 2d 6a 37 3f 04 ae 39 be
       0.16730715 0.2194539 0.71646386 -0.18132788
0000b0 3d 89 83 bf 3a a0 89 3f 70 c4 31 bf 61 0b 14 be
       -1.0276257 1.0752022 -0.69440365 -0.14457466
0000c0 38 c6 bd bd e4 78 8a bd 1b ce 53 3c c3 fc 76 3b
       -0.09266323 -0.06761339 0.012927557 0.0037687279
0000d0 66 e8 5f 3d 83 c8 11 41 75 28 8f 3a 8d 2f d6 bb
       0.05466499 9.111453 0.0010922091 -0.00653643
0000e0 5e 2c ec ba 5b f7 97 bb c4 4f c4 bc 93 bd bf bc
       -0.0018018594 -0.0046376414 -0.023963816 -0.023405826
0000f0 2d 76 1f c0 50 e5 9d 3f 7b bd 23 3e 63 82 79 be
       -2.4915879 1.2335606 0.1599025 -0.24366145
000100 60 85 a0 3e 14 1b 38 be 83 19 29 be a3 71 1a bf
       0.31351757 -0.1797908 -0.16513638 -0.60329646
000110 e8 9a 98 3f 16 68 6f 3e 07 09 43 be 6c 00 e7 bd
       1.1922274 0.2337955 -0.19046412 -0.11279377
000120 8a 3e ab bf e9 dc 9b bf a9 36 64 bf 69 fc 67 3f
       -1.337846 -1.2176791 -0.89145905 0.9061952
000130 8a 85 72 40 92 48 85 41 18 14 c3 40 21 2f 57 3f
       3.7894006 16.660435 6.096203 0.8405629

encoder.level2_0.d2.conv.4.weight f4 [16]
000000 d6 11 a0 3e fc 34 f5 3e 1a 48 8b 3e 8e ed da 3e
       0.31263608 0.47891986 0.27203447 0.42759365
000010 f1 75 a2 3e 9c 6e c5 3e dd 89 36 3e 69 d6 0f 3e
       0.31730607 0.3856095 0.17826028 0.14046635
000020 f8 d4 f7 3e 6d f2 e1 3e 8e f4 93 3e 1f d0 3a c1
       0.4840467 0.4413027 0.28897518 -11.675811
000030 5a e2 f2 3d f2 92 13 3f 66 91 82 3e fb 2e 80 be
       0.118595794 0.57646096 0.25501555 -0.25035843

encoder.level2_0.d2.conv.4.bias f4 [16]
000000 e9 e8 f1 3d 5d 5d 92 3c 2e 32 17 3d 70 10 2f 3e
       0.11812002 0.017866785 0.03691309 0.17096114
000010 49 7d 01 3e ff 15 db bb 39 c2 4f be 95 17 dc bd
       0.12645449 -0.0066859717 -0.20288934 -0.107466854
000020 6c 68 8a 3d 63 4e da bc ca ea 49 bc 88 8b 12 bd
       0.06758198 -0.026648706 -0.0123240445 -0.0357776
000030 9c 69 86 3c 05 b0 b2 3d b6 79 84 3e ff e2 71 bc
       0.01640778 0.08724979 0.25874108 -0.014763593

encoder.level2_0.d2.conv.4.running_mean f4 [16]
000000 40 ae 98 3b f1 dd 83 bc d0 3c a7 3e e9 f3 89 3d
       0.004659444 -0.01609704 0.32663584 0.06735975
000010 81 ff 6a ba c2 23 33 3a e9 3d 75 3e f7 8a 0b 3e
       -0.00089644647 0.00068336364 0.23949398 0.1362723
000020 c7 fe d0 bc b0 a3 d0 3c f6 5c 1a 40 47 03 a3 38
       -0.025512112 0.025468677 2.411924 7.773056e-05
000030 b9 05 dd bd 8d ce 07 3e 2b d4 7b bd 18 93 82 c0
       -0.10792107 0.13262387 -0.061481636 -4.080456

encoder.level2_0.d2.conv.4.running_var f4 [16]
000000 f9 7e 0f 3c a4 1f 79 3c ce c6 29 3e 78 01 b3 3c
       0.0087583 0.015205298 0.16579744 0.021851286
000010 8e a2 0e 3b c6 ee 96 3c 1e 58 d0 3c 61 01 8b 3c
       0.002176437 0.018424403 0.025432643 0.016968431
000020 31 99 6d 3d 80 ba 2b 3c c9 99 8f 3f 95 a6 e4 33
       0.058007423 0.010481477 1.1218807 1.06473784e-07
000030 99 6a b2 3c e2 35 af 3d 9c 90 04 3e 76 73 dd 3c
       0.021779345 0.08555199 0.12945789 0.027032595

encoder.level2_0.d2.conv.5.weight f4 [16, 1, 3, 3]
000000 6f 50 de 3c 35 7b e0 bd 86 79 ba 3c 3f 0c 08 3e
       0.027137963 -0.10961 0.022763025 0.13285922
000010 b2 be 00 c0 d7 77 8a bc 1b de 74 3d 75 cd 87 bd
       -2.011639 -0.016902847 0.05978213 -0.06630985
000020 6c b0 a4 bb cf bc 4b bc c9 04 bd b9 5f 59 05 3b
       -0.005025914 -0.012435152 -0.00036052454 0.0020347459
000030 7d 45 0b 3c d5 6d fa bb 0f 0c 30 40 ef 2d ac bc
       0.008500454 -0.0076424875 2.750736 -0.021017997
000040 77 49 17 3c 93 38 04 3d 3a 6a a9 3e 1f 55 ff 3f
       0.009233824 0.032280516 0.33088857 1.9947852
000050 a9 99 86 3e 52 1b 91 bd 86 fd 39 bd 0b 8c 8d bc
       0.26289108 -0.07085289 -0.045407794 -0.017278692
000060 26 8a aa ba 9f 7c 87 ba c5 47 b4 bb 5e 82 a9 bd
       -0.0013011142 -0.0010336823 -0.0055017197 -0.08276819
000070 60 16 d9 bd f1 21 77 bd a7 40 00 3e 40 95 0c 40
       -0.10599971 -0.060335103 0.12524663 2.1966095
000080 e3 f0 da bc 4c dc ba bd ae 9d 52 3d 16 c3 a3 bd
       -0.026726192 -0.091240495 0.051419906 -0.07996194
000090 bb 27 8f bc ad 74 00 3d dc 63 b4 bc a6 24 e3 3b
       -0.017475 0.03136127 -0.022020273 0.006931859
0000a0 86 aa 2f bd 36 29 50 c0 70 34 b7 b7 83 84 16 3d
       -0.042887233 -3.2525153 -2.1839718e-05 0.036747467
0000b0 0e 97 42 be 40 6c 1e bd 00 45 c5 3c a1 e3 ef bd
       -0.19002935 -0.038677454 0.024080753 -0.11713339
0000c0 48 a7 cf bd 1d 24 d2 be 40 c8 dc 3f a7 a7 ec bc
       -0.10139328 -0.41043177 1.7248611 -0.028888537
0000d0 0c 4c ab bc e1 fe eb 3b d5 c6 11 bf fc 80 71 3e
       -0.020910285 0.007202015 -0.5694402 0.2358436
0000e0 d8 d1 69 be c4 6e 92 be 8c 9a 89 3f 3a 90 cb 3e
       -0.22833955 -0.28600132 1.0750289 0.39758474
0000f0 35 f0 fe be 43 9d 5f 3e 19 05 ac be 31 ac 69 be
       -0.49792638 0.21837334 -0.3359764 -0.22819592
000100 69 e9 3e be c3 42 0f be d3 e4 05 bf e4 8b a8 3c
       -0.18643726 -0.13990311 -0.52302283 0.020574518
000110 b6 09 de be b2 51 a0 be 2f 64 19 bd f3 b3 57 be
       -0.43366784 -0.3131233 -0.03744906 -0.21064739
000120 3c 00 02 bd cf 73 9b 3d 53 ec ac bc da 95 09 be
       -0.031738505 0.07590448 -0.021108782 -0.1343607
000130 fa e5 0a c0 68 ba 4a 3b 3e 0c 92 3b 84 ea 4f 3e
       -2.1702867 0.003093386 0.004457026 0.20304304
000140 8c 6d a4 3b c0 c7 a7 bc cf ae cb 3c 4d d4 92 3d
       0.005017942 -0.02048099 0.024863629 0.071693994
000150 17 18 e4 3c 63 16 a6 3d 8a bc f3 bf 8a 59 f9 bb
       0.027843518 0.08109739 -1.9041913 -0.007609551
000160 e7 30 66 b9 50 87 80 3e dd 50 a4 bc c5 e7 8e 3d
       -0.00021952727 0.25103235 -0.02005809 0.069778
000170 f7 f8 04 3c f4 72 3e bc c3 97 52 c0 0f ab 23 3c
       0.0081159985 -0.011624087 -3.2905128 0.009989514
000180 95 d5 5e bc cb a3 50 3d 6d a4 10 bd 80 46 61 bd
       -0.013600727 0.050937455 -0.03531306 -0.054998875
000190 a1 9b 6f 3d b2 b6 96 3c 11 fb 73 3f 17 9f 3c bf
       0.05849803 0.018397663 0.9530497 -0.7368025
0001a0 27 5f 77 be b0 28 38 3e 2d ea f5 bd 65 c8 84 bd
       -0.24157391 0.17984271 -0.12007556 -0.06483535
0001b0 d0 b9 9f bd 01 7e 63 bd 81 80 2b be 3a 0e a4 3d
       -0.07799113 -0.05554009 -0.16748239 0.08010526
0001c0 6f f3 f7 bd a9 18 d0 3f 95 dc 2c 3d 9d e4 29 be
       -0.12106978 1.6257526 0.04220255 -0.16591115
0001d0 5d 29 04 3e fa 60 49 3e b8 cf 0a 40 39 49 8c bc
       0.12906404 0.196659 2.1689281 -0.017124759
0001e0 b7 29 ff 3b 90 93 e4 bc f4 b3 22 3c 95 19 a9 bc
       0.007786955 -0.027902395 0.0099305995 -0.020642081
0001f0 2b af 80 bc ba a7 0f bc 02 76 ca bd ee d9 73 3e
       -0.015708527 -0.0087680165 -0.098857895 0.23813602
000200 fe cd fc 3c aa af cd 3e 97 9e 89 3f 6e dd b8 3e
       0.030859943 0.40173084 1.0751523 0.36106437
000210 d0 84 a7 bd ce 2f c8 3e 88 db e2 3c 7d a8 ef bd
       -0.08179629 0.39098972 0.027692571 -0.117020585
000220 34 bf b4 3d 4f 37 aa 3d b2 f9 4b 3d b0 7e 40 3f
       0.088255316 0.083113305 0.049798675 0.7519331
000230 90 22 c9 3e a7 8e 0c bd 20 ae 4e 3d fc dc 89 3b
       0.39284182 -0.03431573 0.050459027 0.0042072516
